Navigation/exp/CrowdSim-v0/H1024_L2_lr0.0001/teacher_b-1_g1_m0_s0_e0/label_smooth_0.0/schedule_0/ActiveLearning/reward_model_4000_1.pt (torch, 567631 bytes, 7 tensors)

0.weight f4 [256, 36]
0	0xbd69921e	-0.057024114
1	0xbe21087f	-0.15725897
2	0xbe0df7a7	-0.13864003
3	0x3de6280b	0.11238106
4	0x3dec4f5f	0.11538576
5	0xbe196f54	-0.14983875
6	0x3d9cf279	0.076634355
7	0xbd89742d	-0.06711612
8	0xbd2e421b	-0.04254351
9	0xbd247a3c	-0.040155634
10	0xbdda40e8	-0.10656911
11	0x3d92871a	0.07154675
12	0x3b7e7133	0.0038824796
13	0xbcf0f4ba	-0.02941357
14	0xbdd50f80	-0.10403347
15	0x3cf23ab6	0.029569011
16	0xbd4d7d26	-0.05016818
17	0xbd902665	-0.07038573
18	0xbd233d2a	-0.039853252
19	0x3c2322ee	0.009957058
20	0x3b840560	0.004028961
21	0xbe00e213	-0.1258624
22	0x3e851907	0.25995657
23	0xbd8b0863	-0.06788709
24	0x3c96977b	0.018382778
25	0xbe5d3503	-0.21602254
26	0xbd2d654d	-0.042332936
27	0xbd03c55c	-0.03217064
28	0x3c70d686	0.014699584
29	0xbdada79b	-0.08479234
30	0x3d28b857	0.041191425
31	0x3dff2b18	0.12459391
32	0xbe09164a	-0.13387409
33	0xbbcb649f	-0.0062070633
34	0x3e2bf923	0.16794257
35	0xbe3494cc	-0.17634887
36	0x3cb810b8	0.02246891
37	0xbd1406bf	-0.036139246
38	0xbe58f763	-0.2118812
39	0x3d56bd84	0.05242683
40	0x3d7d81d7	0.061891403
41	0x3d94cf93	0.07266154
42	0xbdc8df0b	-0.09808167
43	0x3d96695b	0.07344314
44	0x3e27f937	0.16403662
45	0xbde167b6	-0.110061094
46	0xbd60d44d	-0.054889966
47	0x3d86c82a	0.06581147
48	0xbdb9fac0	-0.0908103
49	0xbc7159f9	-0.014730924
50	0x3dfed361	0.12442661
51	0xbd3c9029	-0.04603592
52	0x3d90dd88	0.07073504
53	0x3de9150b	0.11380967
54	0x3df626ca	0.12019117
55	0xbdb8579a	-0.09001084
56	0x3d880ed7	0.066434555
57	0xbe247027	-0.16058408
58	0xbdcfde26	-0.10149793
59	0x3e125e81	0.14293863
60	0x3db42e55	0.087979
61	0x3d3c1aa9	0.045923863
62	0x3de704f6	0.11280243
63	0x3d4f854b	0.050664227
64	0x3ea594c4	0.32340062
65	0x3e10c984	0.14139372
66	0x3e2b6a72	0.16739824
67	0x3d856f53	0.06515374
68	0x3d64355e	0.055714957
69	0xbd744d5a	-0.05964408
70	0xbe15a1dc	-0.14612526
71	0xbd3c437a	-0.04596279
72	0x3db8f431	0.09030951
73	0x3d288c6e	0.04114955
74	0x3df211ad	0.11819778
75	0xbcdbc694	-0.026828088
76	0x3c6b9aa7	0.014380134
77	0xbd8bc393	-0.06824412
78	0x3e559f70	0.20861602
79	0x3d5a0b43	0.053233396
80	0xbdfdaa5e	-0.123860106
81	0xbdf3d894	-0.119065434
82	0xbd307932	-0.04308433
83	0xbd53c97b	-0.05170582
84	0xbe27f776	-0.16402993
85	0xbdbff3dd	-0.09372685
86	0xbd3bc8a5	-0.045845646
87	0x3d36f640	0.044668436
88	0xbe02d2cf	-0.1277573
89	0xbe603b29	-0.21897568
90	0x3e063a06	0.13108072
91	0x3acc3f09	0.0015582751
92	0x3de5afa1	0.11215139
93	0xbd89a708	-0.06721312
94	0xbdbef2d2	-0.09323658
95	0xbd8226a3	-0.063550256
96	0x3db61519	0.08890743
97	0xbaab3320	-0.0013061501
98	0xbe0e9607	-0.13924418
99	0xbba9d8b9	-0.005183306
100	0x3d65ee34	0.05613537
101	0x3df7df65	0.12103156
102	0x3d8da397	0.06915968
103	0xbd96069b	-0.07325479
104	0x3e48ddfa	0.19615927
105	0xbdaf21d5	-0.08551375
106	0x3e8e6825	0.2781383
107	0xbe7d0198	-0.24707639
108	0x3e17402a	0.1477057
109	0xbe3fe811	-0.1874087
110	0xbda2b298	-0.0794422
111	0x3e1cb7d8	0.15304506
112	0x3db20bf1	0.08693684
113	0xbe016612	-0.12636593
114	0xbd8bc9e0	-0.06825614
115	0xbe0b1dbc	-0.13585562
116	0x3db9de1e	0.090755686
117	0x3df475af	0.11936509
118	0xbc4db837	-0.012556127
119	0xbe08d1a7	-0.13361226
120	0x3e731059	0.23736705
121	0x3c6f6717	0.014611981
122	0x3e19c446	0.15016279
123	0x3d9fb8ab	0.077988945
124	0x3d48dbd9	0.049037788
125	0xbd18599c	-0.037194833
126	0xbdab2267	-0.08356171
127	0xbd7291cb	-0.05922107
128	0xbd963afb	-0.073354684
129	0x3dcde7c2	0.1005397
130	0x3e4385a1	0.19093944
131	0x3db58082	0.088624015
132	0xbe1b3240	-0.15155888
133	0xbc864aaa	-0.016393024
134	0xbe413fb2	-0.18871954
135	0xbd89f330	-0.067358375
136	0xbe31c58d	-0.17360516
137	0xbde98487	-0.11402231
138	0x3dea9cd3	0.11455693
139	0x3dfb45ce	0.122691736
140	0xbe09c577	-0.13454233
141	0xbc6a2691	-0.0142914215
142	0xbd3e4da0	-0.046460748
143	0x3e0bbc42	0.13646033
144	0x3ae7dee7	0.0017690331
145	0xbdfe052d	-0.12403331
146	0x3e49dc4b	0.19712941
147	0x3d0d469d	0.03449117
148	0x3d5ca63a	0.053869464
149	0x3dc9cdea	0.09853728
150	0x3ddc5c29	0.10759766
151	0x3e289c99	0.16465987
152	0x3dd47d57	0.10375469
153	0x3b8dab01	0.004323364
154	0x39b02dfb	0.00033603594
155	0xbe117498	-0.14204633
156	0xbe401a1a	-0.18759957
157	0x3e99e507	0.30057546
158	0x3deca07c	0.115540475
159	0xbdecf202	-0.11569597
160	0xbd519dac	-0.05117576
161	0x3d404ded	0.046949316
162	0xbe05f38b	-0.13081186
163	0xbd5df0cf	-0.05418473
164	0xbdcd502c	-0.10025057
165	0xbd740a15	-0.059579927
166	0xbe12ee62	-0.14348748
167	0x3de05ef0	0.10955608
168	0x3c2bd587	0.010487921
169	0x3d821812	0.06352247
170	0xbd9a14d6	-0.075235054
171	0x3d23942c	0.03993623
172	0x3e9a742c	0.30166757
173	0xbda66db3	-0.08126392
174	0x3dc344bb	0.09534594
175	0x3e1fb6aa	0.15597025
176	0x3d65048f	0.05591255
177	0x3d8fbe28	0.07018691
178	0xbe15272d	-0.14565726
179	0x3e95503f	0.29162785
180	0xbd6e5e30	-0.058195293
181	0x3b04ec39	0.0020282401
182	0x3e0e4078	0.1389178
183	0x3d80da45	0.062916316
184	0xbd10cc03	-0.03535081
185	0x3de80120	0.113283396
186	0xbd92cc23	-0.07167842
187	0xbd11bf86	-0.03558304
188	0x3d46b426	0.048511647
189	0xbe3d508b	-0.18487756
190	0x3cac7ffb	0.02105712
191	0x3d903ef1	0.07043255
192	0x3da230cd	0.07919464
193	0x3e104077	0.14087091
194	0x3d916a00	0.07100296
195	0x3e3681c0	0.17822933
196	0x3e2ab879	0.16671933
197	0xbe81a88a	-0.25323898
198	0xbc96f8a0	-0.0184291
199	0xbdcb47d2	-0.09925808
200	0xbe4992c9	-0.196849
201	0x3c06b5a5	0.008222018
202	0x3dc81914	0.09770408
203	0xbdfda09a	-0.12384148
204	0x3c9aff86	0.018920671
205	0xbdb4b806	-0.08824162
206	0xbe21be9e	-0.15795371
207	0xbd8b6c4f	-0.068077676
208	0x3df922bd	0.12164829
209	0x3ddb96f8	0.107221544
210	0xbc8c2b5f	-0.017110525
211	0x3cc8e156	0.024521511
212	0xbe09cb3a	-0.13456431
213	0xbd9addab	-0.07561811
214	0xbd806117	-0.062685184
215	0xbd7077a0	-0.058707833
216	0xbaf1b3ea	-0.0018440459
217	0xbb0edba8	-0.0021798406
218	0xbcdeb970	-0.027188033
219	0x3c56a0a9	0.013099828
220	0xbda1b43c	-0.07895705
221	0x3d9b2662	0.0757568
222	0x3e0f5452	0.1399701
223	0x3e0a24d7	0.13490616
224	0x3d2d2f15	0.04228123
225	0xbd0fb480	-0.035084248
226	0xbcacef15	-0.021110097
227	0x3d03ec0e	0.03220754
228	0x3dbedb83	0.09319212
229	0xbd5ed0f9	-0.05439851
230	0x3df90133	0.12158432
231	0xbdf59ead	-0.11993156
232	0xbcb9a9b1	-0.022663923
233	0x3e1e5cfe	0.15465161
234	0xbddb017c	-0.106936425
235	0x3da90ab5	0.08253995
236	0xbe316fee	-0.17327854
237	0x3d0f94f1	0.03505415
238	0xbd8c5f2e	-0.068540916
239	0xbd30823e	-0.04309296
240	0x3c01af8e	0.007915391
241	0xbbe6eac7	-0.0070470306
242	0x3dcfc444	0.101448566
243	0xbe1915bf	-0.14949702
244	0xbd78e058	-0.060760826
245	0x3d19e23f	0.03756928
246	0x3d0d59b6	0.034509383
247	0x3e23520b	0.15949266
248	0x3e10bf12	0.14135388
249	0xbdf24202	-0.11828996
250	0xbdc9d52b	-0.09855112
251	0x3dbc4e1e	0.09194587
252	0x3de1fbc3	0.11034348
253	0x3de99d07	0.11406904
254	0x3e00954f	0.12556957
255	0xbd9cf5a0	-0.07664037

0.bias f4 [256]
0	0xbd7e1db3	-0.062040042
1	0xbd8e36bc	-0.069440335
2	0xbda9cdd9	-0.082912154
3	0xbd9c0b96	-0.07619397
4	0x3d2a5d00	0.041592598
5	0x3cbdd88d	0.023174549
6	0xbd2802c8	-0.041018277
7	0xbd070f77	-0.032973733
8	0x3d68b9bb	0.05681775
9	0x3d1fbcc3	0.038998377
10	0x3c6374fb	0.013882871
11	0xbda29644	-0.07938817
12	0x3cd9ca9b	0.026585868
13	0x3e3a7dea	0.18212095
14	0x3d319b8b	0.043361228
15	0xbdef5ed7	-0.11688011
16	0xbce09816	-0.02741627
17	0xbd0dc491	-0.03461129
18	0xbdd58892	-0.10426439
19	0x3d0c9a6f	0.034326967
20	0xbd8754fe	-0.06608008
21	0xbd8ba745	-0.068190135
22	0x3de4ebf0	0.11177814
23	0x3da9248e	0.082589254
24	0xbd638d29	-0.055554543
25	0xbe531f34	-0.20617372
26	0x3dbef7db	0.093246184
27	0xbe260168	-0.16211474
28	0x3e00e3e0	0.12586927
29	0xbe24652e	-0.16054222
30	0x3d94bdf2	0.07262792
31	0xbccf6e37	-0.02532111
32	0xbdfb793a	-0.122789815
33	0xbc912d70	-0.017721862
34	0xbe0d6e8b	-0.138117
35	0x3b5f3d45	0.003406362
36	0x3ca6815d	0.020325357
37	0xbdde0bc3	-0.10842087
38	0xbdbfd83e	-0.09367417
39	0x3d6d4e54	0.057936028
40	0x3c92e280	0.01793027
41	0x3e274b36	0.16337284
42	0xbd634c45	-0.05549266
43	0xbdd22c3c	-0.10262343
44	0xbe0aa6df	-0.13540219
45	0xbe2988f7	-0.16556154
46	0x3cde3bb4	0.027128078
47	0x3d3910e3	0.04518212
48	0xbc8090ef	-0.01569411
49	0xbe1b3276	-0.15155968
50	0xbe0e2b3d	-0.13883682
51	0x3d165520	0.036702275
52	0x3df535ff	0.119731896
53	0xbc8a667b	-0.01689457
54	0xbdcea1a2	-0.10089423
55	0xbd1f0a3b	-0.038828116
56	0x3bce40fc	0.006294368
57	0x3e29921c	0.16559643
58	0x3b1b33bd	0.0023681961
59	0x3df6ec54	0.12056795
60	0xbdee5f5d	-0.11639283
61	0xbd547a84	-0.051874653
62	0xbe1ebdd3	-0.155021
63	0xbe17660b	-0.1478502
64	0x3dcf21a3	0.101138376
65	0x3de1dfbd	0.11029003
66	0xba6bce45	-0.0008995275
67	0xbdb99bd1	-0.09062923
68	0x3e12260a	0.14272323
69	0xbd5ddb13	-0.054164004
70	0x3dc6f232	0.09714164
71	0xbd6a3302	-0.05717755
72	0x3d941125	0.072298326
73	0xbda5954d	-0.080851175
74	0x3d4bc4eb	0.049748342
75	0xbe158b56	-0.14603934
76	0x3e0c6018	0.13708532
77	0x3d35eabc	0.044413313
78	0xbe068cdb	-0.1313967
79	0xbde0740d	-0.10959635
80	0x3c249a2a	0.010046521
81	0x3cac1199	0.021004485
82	0xbd9b1bc7	-0.075736575
83	0x3ce7cfaf	0.028297273
84	0x3da4410e	0.08020221
85	0x3d8b3214	0.06796661
86	0xbcd431c5	-0.025902638
87	0x3d32aecf	0.04362374
88	0x3e05914a	0.13043705
89	0xbd0d1aa1	-0.034449223
90	0xbc1700fd	-0.009216544
91	0x3db0011b	0.08593961
92	0x3e15e8dd	0.14639612
93	0xbe444221	-0.19165851
94	0xbdd60b55	-0.1045138
95	0x3e05e8f9	0.13077153
96	0xbde50555	-0.11182658
97	0xbddc4b16	-0.10756509
98	0xbda9d1bb	-0.08291956
99	0x3e0e6901	0.13907243
100	0xbd333dca	-0.0437601
101	0xbdb40e1e	-0.08791755
102	0xbd97f8ae	-0.07420479
103	0x3d2a196f	0.04152816
104	0xbe38e7f6	-0.18057236
105	0xbda20f8b	-0.07913121
106	0x3c839652	0.01606289
107	0xbe18ac97	-0.14909588
108	0x3d9b4cf6	0.075830385
109	0xbe2d6874	-0.16934377
110	0xbd9cb8a9	-0.07652409
111	0xbcd2ab67	-0.025716497
112	0xbe6293d4	-0.22126704
113	0xbdecb4cf	-0.11557924
114	0x3d93a6c6	0.07209544
115	0x3d6ddf31	0.05807418
116	0x3bace607	0.005276445
117	0x3c88a0b8	0.0166782
118	0x3d4d526a	0.050127424
119	0x3da49c1f	0.0803759
120	0x3c95bd43	0.018278724
121	0xbe3f673a	-0.18691722
122	0xbd3ace9a	-0.045607187
123	0x3d31c285	0.0433984
124	0xbd80f8ce	-0.06297456
125	0xbcbab01e	-0.022789057
126	0xbd86a96b	-0.06575283
127	0x3c0bb0a8	0.008526005
128	0x3cea0fb1	0.028571935
129	0x3d8cee6d	0.068814136
130	0x3de8fc33	0.11376228
131	0x3d1a8e07	0.037733104
132	0x3dd0889c	0.10182306
133	0xbdc630d7	-0.09677284
134	0xbdfd5b08	-0.123708785
135	0xbd9c5147	-0.0763269
136	0x3c27fcdd	0.010253158
137	0xbd7d3a63	-0.06182326
138	0xbe2e2383	-0.17005734
139	0x3e012eac	0.1261546
140	0x3bbd0509	0.0057684225
141	0x3cf740e8	0.030182317
142	0xbddb639a	-0.10712357
143	0xbe069ac1	-0.13144971
144	0xbe32b223	-0.17450766
145	0x3e06fe64	0.1318298
146	0xbe028328	-0.12745345
147	0x3cfd3aff	0.03091192
148	0xbc92c8f0	-0.01791808
149	0xbd277c16	-0.040889822
150	0x3ded5dfa	0.1159019
151	0x3ca9b91b	0.020718148
152	0xbe18f60d	-0.14937611
153	0xbdfd5da3	-0.123713754
154	0xbdfdf14c	-0.12399539
155	0xbde9d779	-0.11418051
156	0x3cafe6dd	0.021472389
157	0xbdc77a4d	-0.09740124
158	0x3d62ea73	0.05539937
159	0xbd88d4ee	-0.06681238
160	0xbde01772	-0.10941972
161	0xbc4bb5f2	-0.012433516
162	0x3e0c8c19	0.13725318
163	0x3dbad9bf	0.09123563
164	0x3ba0e79d	0.004910423
165	0xbcfa0beb	-0.030523261
166	0x3e31c31d	0.17359586
167	0x3c0ac0a7	0.008468783
168	0x3d561da3	0.052274358
169	0xbe3499e0	-0.17636824
170	0xbddca4a4	-0.1077359
171	0xbd252a13	-0.04032333
172	0x3d891be5	0.066947736
173	0x3c8de214	0.017319717
174	0x3dfc2cb2	0.123132125
175	0xbe014f64	-0.12627941
176	0xbe182ec6	-0.14861593
177	0x3bc69196	0.0060598357
178	0x3c80333b	0.015649429
179	0xbdf9b249	-0.12192208
180	0x3d4c0519	0.04980955
181	0x3e118e65	0.14214475
182	0x3e168220	0.14698076
183	0x3c98d570	0.018656462
184	0xbde8cd2c	-0.113672584
185	0x3cf71812	0.030162845
186	0xbd124a64	-0.035715476
187	0xbe3830aa	-0.17987314
188	0x3df397f8	0.1189422
189	0xbe835015	-0.25647035
190	0xbd83f47d	-0.06443117
191	0xbe1727a9	-0.14761223
192	0xbc1e697f	-0.009668707
193	0xbdb4584a	-0.08805902
194	0x3d8f3665	0.06992797
195	0xbddd113c	-0.10794303
196	0xbdb4310b	-0.08798417
197	0x3d65d686	0.05611279
198	0xbe3416b3	-0.17586784
199	0x3dfaeb8d	0.12251959
200	0xb982c4eb	-0.00024942248
201	0xbdb0d099	-0.08633537
202	0xbe3f0213	-0.18653135
203	0xbd88fc21	-0.06688715
204	0xbc5f03fd	-0.013611791
205	0x3ccc1ffb	0.024917593
206	0x3e0e3a6a	0.1388947
207	0xbda7dfe3	-0.08197
208	0xbde62e72	-0.112393275
209	0x3dbf7522	0.09348513
210	0x3e0d8907	0.13821803
211	0x3d046513	0.032322954
212	0xbe2a0ee3	-0.16607241
213	0xbdf115e0	-0.117717505
214	0xbd51fcde	-0.051266544
215	0xbd93a2b9	-0.07208771
216	0xbe2a3eae	-0.16625473
217	0xbdbc26e1	-0.09187103
218	0xbdb46b97	-0.08809584
219	0xbe001de4	-0.12511402
220	0x3d3af147	0.045640256
221	0xbd44673b	-0.04795001
222	0x3d68cc32	0.05683536
223	0x3de95795	0.11393658
224	0x3dff6ef1	0.12472332
225	0x3dc3a6fd	0.09553335
226	0xbd9efc18	-0.07762927
227	0xbc6b1061	-0.014347167
228	0xbe231543	-0.1592608
229	0x3e0d3477	0.13789545
230	0xbd1808e6	-0.03711786
231	0x3e0e6552	0.13905838
232	0x3db3ca2a	0.08778794
233	0xbe29ee31	-0.16594769
234	0xbe0b80cc	-0.13623351
235	0xbdc263db	-0.09491702
236	0xbe145365	-0.14484937
237	0x3d618b59	0.055064533
238	0xbe490fd4	-0.19634944
239	0xbe42b9fb	-0.19016258
240	0xbd86aab8	-0.06575531
241	0xbe104041	-0.14087011
242	0x3c12abcc	0.008952092
243	0xbce00f24	-0.02735097
244	0xbe1bed6e	-0.15227291
245	0xbda50d55	-0.080591835
246	0xbe654907	-0.22391139
247	0x3d18be6a	0.037290968
248	0xbe042a8c	-0.12906855
249	0xbcd266e8	-0.025683835
250	0xbbb77356	-0.005598466
251	0xbdba47fc	-0.09095761
252	0x3c95a6b7	0.018267972
253	0x3e0f688e	0.14004728
254	0x3da4ea2c	0.08052477
255	0xbd45e8e0	-0.04831779

2.weight f4 [256, 256]
0	0x3d22f5e6	0.03978529
1	0x3d75560b	0.05989651
2	0x3d90b56a	0.07065852
3	0xbd83251c	-0.064035624
4	0xbd070466	-0.03296318
5	0xbd6037dc	-0.05474077
6	0x3da827e3	0.08210733
7	0xbc97c609	-0.018527048
8	0xbd6c5e04	-0.057706848
9	0x3cfe0219	0.03100686
10	0x3d11f9b3	0.035638522
11	0x3dcdf98d	0.10057364
12	0xbd116845	-0.03549983
13	0xbdbdf2d2	-0.0927483
14	0xbd07a0eb	-0.033112448
15	0xbc4526a2	-0.012033137
16	0x3ce25a48	0.02763094
17	0xbd6d56be	-0.057944052
18	0xbd281adb	-0.041041236
19	0xbd6349b1	-0.0554902
20	0x3c4e4037	0.012588552
21	0xbd0470a0	-0.03233397
22	0x3d0c5161	0.034257296
23	0x3d8c5672	0.06852426
24	0xbcf617ae	-0.030040588
25	0xbd91272f	-0.07087552
26	0x3c8468ec	0.016163312
27	0x3d768635	0.060186584
28	0x3e0c3274	0.13691121
29	0xbd905d12	-0.07049002
30	0xbdae7959	-0.08519239
31	0x3d4eb991	0.05046994
32	0xbca37cb5	-0.019956926
33	0x3da515a2	0.08060767
34	0x3bbca682	0.005757154
35	0x3c83c953	0.01608721
36	0xbcc3f72c	-0.023921572
37	0x3d2233bc	0.03960012
38	0xbd691125	-0.056901116
39	0x3d5d50cf	0.054032143
40	0xbdd9033f	-0.10596322
41	0x3ca4e8dc	0.020130567
42	0xbe145b8b	-0.14488046
43	0xbca87a21	-0.020566048
44	0x3d97d81d	0.07414267
45	0x3d23fc8f	0.04003578
46	0x3d9933ac	0.07480559
47	0xbc067ffc	-0.008209225
48	0xbdae61ea	-0.085147694
49	0xbd157641	-0.03648973
50	0x3d85fdd9	0.06542558
51	0x3ce5da5f	0.028058229
52	0xbd966de8	-0.07345182
53	0xbd8b4145	-0.067995586
54	0x3d60a4e9	0.05484477
55	0xbde8152d	-0.11332164
56	0xbcbee697	-0.023303313
57	0xbc1cfb4e	-0.0095814
58	0x3dd0294a	0.10164125
59	0x3cedd7c0	0.029033542
60	0xbc03e628	-0.008050479
61	0xbd3055b5	-0.043050487
62	0x3d1a1583	0.03761817
63	0xbd27d9c6	-0.04097917
64	0xbc1c6265	-0.009544943
65	0xbc6abb95	-0.01432695
66	0x3d9af561	0.075663336
67	0xbafa3fb3	-0.001909247
68	0xbd941386	-0.07230286
69	0x3d40d0fd	0.047074307
70	0xbc9061bd	-0.01762473
71	0x3d87cde9	0.06631071
72	0x3d0138da	0.03154836
73	0xbd1133af	-0.03544968
74	0xbc252460	-0.010079473
75	0x3dc795d8	0.09745377
76	0xbc231fa8	-0.009956278
77	0x3c350032	0.01104741
78	0xbdf733b1	-0.12070406
79	0x3d0a0eee	0.033705644
80	0x3cf91a7d	0.030408138
81	0xbbf63fb3	-0.0075149178
82	0x3db0f34e	0.08640157
83	0x3c86b2b5	0.016442636
84	0xbd8b0e29	-0.0678981
85	0x3d99c991	0.07509149
86	0x3d9779d9	0.073962875
87	0xbd1ce950	-0.03830844
88	0x3c321c1e	0.0108709615
89	0x3ba07470	0.004896693
90	0x3db618cc	0.088914484
91	0x3d6e1d67	0.05813351
92	0xbc32f5ef	-0.010922893
93	0x3d85db20	0.065359354
94	0xbd296a52	-0.04136116
95	0xbd0aa67d	-0.03385018
96	0xbd2b267f	-0.04178476
97	0x3cfa39f9	0.030545222
98	0x3c5cc1c2	0.01347393
99	0x3d5aa467	0.053379443
100	0x3d33dbe7	0.043910887
101	0x3c895cdf	0.016767917
102	0xbe0cedb4	-0.13762552
103	0x3d8bc25f	0.06824183
104	0x3db9f839	0.09080548
105	0xbcf741d0	-0.030182749
106	0xbe0b2947	-0.13589965
107	0xbd6272c3	-0.055285227
108	0x3d938d7d	0.07204721
109	0xbcbe8c60	-0.023260295
110	0xbd5c5414	-0.05379112
111	0xbcbffb26	-0.023435187
112	0x3cce89d1	0.0252122
113	0x3ce6e5fc	0.028185837
114	0xbb068fef	-0.0020532568
115	0x3d4ef670	0.05052799
116	0x3da55aff	0.08073997
117	0x3ca0dfae	0.019637909
118	0x3d25da73	0.040491533
119	0x3d99d66d	0.075116016
120	0xbd4aa986	-0.049478076
121	0x3da8e2b5	0.08246366
122	0x3bbde379	0.005794939
123	0xbd9c3e8b	-0.076291166
124	0x3db3c31e	0.0877745
125	0xbba3531e	-0.0049842736
126	0x3d8b2921	0.06794954
127	0xbd16570b	-0.036704104
128	0xbdc2e211	-0.09515775
129	0xbd672fdf	-0.056442138
130	0x3dc2be42	0.09508945
131	0xbdaa3b75	-0.08312122
132	0xbd8b15bc	-0.06791255
133	0xbdc33a70	-0.095326304
134	0x3c068301	0.008209945
135	0xbd4699a1	-0.048486356
136	0xbcc46eb9	-0.023978578
137	0x3d274652	0.040838547
138	0x3c7edda2	0.015555771
139	0xbc9cff44	-0.019164689
140	0xbe32ba38	-0.1745385
141	0x3d523946	0.05132415
142	0x3c3e20da	0.011604512
143	0xbd3e93b6	-0.046527587
144	0xbce96e3f	-0.028494952
145	0xbce0df82	-0.027450327
146	0xbd2547fd	-0.040351856
147	0xbcd78aac	-0.026311241
148	0x3dda5997	0.10661619
149	0x3d8161cd	0.06317482
150	0xbd3e2b20	-0.046427846
151	0x3d109d55	0.035306294
152	0xbd675871	-0.05648083
153	0x3c5c72f8	0.013455145
154	0xbcf6ee51	-0.030142935
155	0xbe310b3c	-0.17289442
156	0xbcc88362	-0.02447671
157	0xbdada6a7	-0.08479052
158	0xbcd3b33a	-0.025842298
159	0xbcfcb1b7	-0.03084646
160	0x3d5997f6	0.053123437
161	0x3cdfd889	0.027324932
162	0x3ced959a	0.029002
163	0x3d6baf02	0.057539947
164	0xbde683b7	-0.11255591
165	0xbc716c0b	-0.014735232
166	0x3d0e0bfb	0.034679394
167	0xbcc547f5	-0.024082163
168	0x3d81f867	0.06346207
169	0x3cf1ac55	0.02950112
170	0x3d275792	0.040854998
171	0xbbb8d8cd	-0.005641079
172	0x3cc68959	0.024235414
173	0x3dd8e7e5	0.10591105
174	0x3d48e277	0.0490441
175	0x3d95b903	0.07310679
176	0xbda63eef	-0.081174724
177	0x3e16c8b0	0.14724994
178	0x3d5335e1	0.051565055
179	0x3dfa4747	0.12220626
180	0xbd83b26a	-0.06430514
181	0xbc7b1a69	-0.015326121
182	0x3da05743	0.07829144
183	0xbdd33e2c	-0.10314593
184	0xbd50daf4	-0.05099006
185	0xbc98c6ec	-0.01864954
186	0x3de00128	0.109377205
187	0xbd9e1ece	-0.07720719
188	0xbdeae180	-0.11468792
189	0x3d302ffc	0.04301451
190	0x3cc56c3c	0.024099462
191	0x3d238326	0.039919995
192	0xbd1d5b9d	-0.038417447
193	0x3cdafa76	0.026730757
194	0x3ddee5db	0.10883685
195	0xbc6c8e3a	-0.014438206
196	0x3c1a2206	0.009407526
197	0xbd941bc9	-0.07231862
198	0x3dc888d4	0.09791723
199	0xbcacaa31	-0.021077247
200	0x3ca35331	0.01993713
201	0xbd884fd8	-0.06655854
202	0x3d08dd30	0.033414066
203	0xbdb522be	-0.08844517
204	0xbd1e817a	-0.038697697
205	0xbd691352	-0.05690319
206	0xbdba0ac6	-0.09084086
207	0xbd778862	-0.0604328
208	0x3c3da112	0.011574047
209	0xb9445b23	-0.00018725968
210	0xbcef2209	-0.029191034
211	0x3d239e1c	0.039945707
212	0x3b5457b2	0.0032400903
213	0x3dca6e34	0.09884301
214	0x3cde79f8	0.027157769
215	0x3c3b932e	0.011448665
216	0x3d0c3762	0.034232505
217	0xbd9da376	-0.07697193
218	0x3d8ecb52	0.06972374
219	0x3d7272d4	0.05919154
220	0x3cc53ab6	0.024075847
221	0xbd9dfcd9	-0.077142425
222	0x3c85a8ab	0.016315779
223	0x3ca81e3d	0.020522231
224	0x3d357212	0.04429824
225	0x3dcf185d	0.10112069
226	0x3bce9898	0.0063048117
227	0xbcd95e65	-0.026534269
228	0xb9911352	-0.0002767095
229	0x3c35f43b	0.011105592
230	0x3db221cd	0.08697853
231	0x3c23f2fe	0.010006664
232	0xbd294746	-0.041327737
233	0x3d9515ac	0.07279524
234	0xbe13e0eb	-0.14441268
235	0xbd5c550f	-0.053792056
236	0x3daa358c	0.083109945
237	0x3b5f67ba	0.0034088925
238	0x3a841fe2	0.0010080303
239	0xbb09830d	-0.0020982653
240	0x3d80bedd	0.06286404
241	0xbe1da650	-0.15395474
242	0xbd71b0f2	-0.05900664
243	0xbda8b591	-0.08237756
244	0x3d82aef7	0.06381028
245	0xbd70939b	-0.058734518
246	0x3cb708c7	0.022343053
247	0xbcf73c0e	-0.030180003
248	0xbd38fd0b	-0.045163196
249	0xbd046331	-0.03232116
250	0x3db5dc0c	0.08879861
251	0xbd7699e1	-0.060205344
252	0xbe16d174	-0.14728338
253	0xbd0c904e	-0.034317307
254	0x3c93fde7	0.018065406
255	0xbd9c4f42	-0.07632305

2.bias f4 [256]
0	0xbc06d945	-0.008230512
1	0x3d646b02	0.055766113
2	0xbd970525	-0.07374028
3	0xbd49879d	-0.049201597
4	0x3cd05b48	0.025434151
5	0xbd4f1bd9	-0.050563667
6	0xbd17f169	-0.03709546
7	0xbda7976d	-0.08183179
8	0x3cb529f7	0.022114737
9	0x3ce4191f	0.02784401
10	0x3a84ebc4	0.0010141064
11	0x3cbfe907	0.023426546
12	0x3d24ad0c	0.040204093
13	0xbdb1b7bb	-0.08677622
14	0x3d8b6ca7	0.06807833
15	0xbda3dab1	-0.080006965
16	0xbd64dd66	-0.055875205
17	0x3c85bae0	0.01632446
18	0xbdce03b8	-0.10059303
19	0x3d1575fb	0.036489468
20	0xbde1d689	-0.110272475
21	0x3cfd1fc5	0.030898938
22	0xbd32ccd3	-0.043652367
23	0xbdc3e2cf	-0.09564745
24	0x3bfa932d	0.0076469393
25	0xbd3b3c28	-0.045711666
26	0x3c8d72d4	0.017266668
27	0xbd18e2fc	-0.037325844
28	0x3c9cea4e	0.019154694
29	0xbda33f1a	-0.0797102
30	0xbd7222e1	-0.059115294
31	0x3c4c3546	0.012463873
32	0xbd5c5093	-0.05378778
33	0xbd4e7a4b	-0.050409596
34	0x3b67e19e	0.003538228
35	0x3c98d137	0.018654449
36	0x3d2c13c5	0.04201104
37	0xbd63cd9c	-0.055616006
38	0x3cd8b96f	0.02645561
39	0x3c230d2c	0.009951871
40	0x3c9960ed	0.018722976
41	0x3bc8a3fa	0.006123063
42	0xbc85179b	-0.016246608
43	0xbcc4442a	-0.023958284
44	0xbc8bf8f6	-0.017086487
45	0xbc01b4e9	-0.0079166675
46	0xbd14b713	-0.036307406
47	0x3d65897b	0.056039315
48	0xbcb03e6f	-0.021514146
49	0x3db9c894	0.0907146
50	0x3d07e5ca	0.03317813
51	0xbc51dd4c	-0.012809109
52	0x3cd6f58b	0.02624013
53	0xbd6c05ca	-0.05762271
54	0xbd8c5c74	-0.068535715
55	0x3d732f35	0.059371192
56	0xbbb64249	-0.005562101
57	0xbc3891d9	-0.011265242
58	0x3d1fffb5	0.03906222
59	0xbd2547e7	-0.040351775
60	0xba8cd951	-0.0010745918
61	0xbd0c7ed7	-0.03430065
62	0xbccf7265	-0.025323102
63	0xbdd07cf1	-0.10180081
64	0x3d43a1c4	0.047761694
65	0x3c5cd1a8	0.01347772
66	0xbd762a4d	-0.060098935
67	0xbc34de77	-0.011039368
68	0x3b73f65b	0.0037225697
69	0x3c127e99	0.008941316
70	0xbccdd31b	-0.025125077
71	0xbc822f75	-0.01589177
72	0xbd50626a	-0.050875105
73	0xbd00a827	-0.031410363
74	0x3ca06115	0.019577542
75	0xbd0da11b	-0.03457747
76	0xbcf7faf5	-0.030271033
77	0xbb9bc837	-0.004754092
78	0xbdaf0b25	-0.085470475
79	0x3d949674	0.07255259
80	0x3d42cca5	0.047558445
81	0xbd7c3312	-0.061572142
82	0xbbfd904c	-0.007738149
83	0xbcc2b56e	-0.023768153
84	0x3d2598a6	0.04042878
85	0xbc4f0aee	-0.012636883
86	0xbcf1320b	-0.029442808
87	0xbd3542e8	-0.04425326
88	0xbd914262	-0.0709274
89	0xbc9f6fa0	-0.019462407
90	0xbd60deab	-0.054899853
91	0x3d1562a1	0.036471013
92	0xbd75b989	-0.059991393
93	0xbca94327	-0.020661904
94	0x3c40bba7	0.01176349
95	0xbd957774	-0.072981745
96	0xbd276b2f	-0.040873703
97	0xbdfe32fe	-0.1241207
98	0xbcb19f80	-0.0216825
99	0xbc4821da	-0.012215102
100	0xbd303a04	-0.043024078
101	0xbd57fc77	-0.052731004
102	0x3cbe9361	0.023263635
103	0x3c85d5a4	0.016337223
104	0x3ac4e99a	0.0015023232
105	0x398fe882	0.00027448317
106	0x3d0db323	0.034594666
107	0xbd5972f0	-0.05308813
108	0xbc14779e	-0.009061722
109	0xbdaee2be	-0.085393414
110	0x3d781ef7	0.060576405
111	0x3c80f709	0.015742796
112	0xbd98c44d	-0.074593164
113	0xbdd4bdeb	-0.103877865
114	0x3d5c56f2	0.053793855
115	0x3c8b2a59	0.016987966
116	0x3c06afc8	0.00822062
117	0x3c99d727	0.01877935
118	0xbae75124	-0.0017648083
119	0xbd232fbd	-0.03984045
120	0x3bb5b0b9	0.0055447486
121	0x3cf0e2bb	0.029404989
122	0xbd9caf7d	-0.07650659
123	0x3d4026ee	0.046912126
124	0xbd8130f8	-0.06308168
125	0xbd9d76b4	-0.076886564
126	0x3c91da20	0.017804205
127	0x3ac5b478	0.0015083691
128	0x3d44901f	0.047989007
129	0x3c279e02	0.010230543
130	0xbc9c1b70	-0.019056052
131	0xbd04f53d	-0.03246044
132	0x3adc748b	0.00168194
133	0x3c996497	0.018724723
134	0x3ce12010	0.027481109
135	0xbd8132ae	-0.063084945
136	0xbc9dc877	-0.019260628
137	0x3d53daba	0.051722266
138	0x3cfe92df	0.031075893
139	0xbd2151fd	-0.03938483
140	0xbd188de0	-0.037244678
141	0xbd01cb9d	-0.03168832
142	0xbd591789	-0.05300096
143	0xbbc28735	-0.005936528
144	0xbbf33c42	-0.007422955
145	0xbcfda398	-0.030961797
146	0xbd9b87ed	-0.07594285
147	0x3a7e01f5	0.00096896227
148	0xbc887718	-0.01665835
149	0x3cb5df0e	0.022201087
150	0xbda3dfe0	-0.08001685
151	0xbd585707	-0.05281737
152	0x3a8be520	0.0010673143
153	0xbd6d1ad1	-0.057886902
154	0xbd412f79	-0.047164414
155	0x3d5a90c0	0.0533607
156	0x3d0ff670	0.03514713
157	0x3c9a4704	0.018832691
158	0xbc386161	-0.011253686
159	0xbd536226	-0.051607274
160	0x3c2c8db2	0.01053183
161	0x3da7e27b	0.081974946
162	0xbd2ddf37	-0.042449202
163	0x3cdc3d13	0.026884591
164	0xbce1f890	-0.027584344
165	0xbc99c5c6	-0.018771064
166	0xbc55c7df	-0.013048141
167	0x3c137543	0.009000125
168	0xbbcbd43b	-0.006220368
169	0x3d5a4cd2	0.053295918
170	0x3bbb2578	0.0057112537
171	0xbcb2ab20	-0.021810114
172	0xbd202e93	-0.039106917
173	0xbcae639d	-0.021287734
174	0x3c6da8a9	0.014505544
175	0x3bd77c90	0.0065761283
176	0x3d30ca3f	0.043161627
177	0xbd5f9d20	-0.054593205
178	0xbc965b24	-0.018354006
179	0x3b790ae4	0.0038000876
180	0xbc216756	-0.009851297
181	0xbbf03c9f	-0.0073314453
182	0xbd8d254f	-0.06891882
183	0xbb4e6776	-0.0031494773
184	0x3d87b89d	0.06627009
185	0xbb35792b	-0.002769063
186	0xbd445b47	-0.04793861
187	0xbc16fdf1	-0.009215818
188	0x3bd7a380	0.00658077
189	0xbbf3464b	-0.007424151
190	0xba724df6	-0.00092431845
191	0xbd91c773	-0.0711812
192	0x3cfa292a	0.030537207
193	0xbc410022	-0.011779817
194	0xbc1ce2c4	-0.0095755495
195	0xbc020958	-0.007936798
196	0x3d85f0ae	0.06540047
197	0xbb18d3bf	-0.002331957
198	0xbd937c62	-0.072014585
199	0x3c098fba	0.0083960835
200	0xbd46d99d	-0.048547376
201	0xbc270eee	-0.010196431
202	0xba90ae16	-0.001103821
203	0xbd116d4b	-0.03550462
204	0x3b7518a5	0.0037398722
205	0x3d05efdb	0.032699447
206	0xbc557812	-0.013029115
207	0xbd2c13d8	-0.042011112
208	0xbcbc9753	-0.023021376
209	0xbb15eb8d	-0.0022875995
210	0xbc15c5db	-0.009141411
211	0xbd7c7e85	-0.061644096
212	0xbbf7fe41	-0.007568151
213	0x3d0f9fb4	0.035064414
214	0xbd3d3961	-0.0461973
215	0xbcd9415b	-0.026520422
216	0xbd13b29c	-0.036059007
217	0xbdad1e7f	-0.08453082
218	0x3d508277	0.05090567
219	0x3c2aaa80	0.010416627
220	0x3c6b9221	0.014378102
221	0xbd907588	-0.07053667
222	0x3cc64cb8	0.024206504
223	0x3b47786c	0.0030436767
224	0x3d505f6e	0.05087226
225	0xbb608e8b	-0.003426465
226	0xbcdb5b60	-0.02677697
227	0xbd890825	-0.066910066
228	0xbd2f38c8	-0.04277876
229	0xbcd9180a	-0.02650072
230	0xbd0ade17	-0.033903208
231	0xbd98b144	-0.07455686
232	0x3c7898b7	0.015173129
233	0x3ceae4b2	0.028673504
234	0xbda67fca	-0.081298426
235	0xbccde1f9	-0.025132166
236	0xbc8b566f	-0.017008988
237	0xbcb6f431	-0.022333236
238	0x3cb13d70	0.021635741
239	0x3bcafc00	0.0061945915
240	0xbd7b563c	-0.061361536
241	0x3d4cdf6e	0.050017767
242	0xbd4ca5e9	-0.04996291
243	0x3d973e50	0.07384932
244	0xbdad89ec	-0.08473572
245	0xbd948695	-0.07252232
246	0xbd18dec7	-0.037321832
247	0xbcbf75a1	-0.02337152
248	0xbcb289ce	-0.021794226
249	0x3d5046b5	0.05084868
250	0xbca143d5	-0.019685665
251	0xbd9e25f7	-0.07722085
252	0x3b83238d	0.0040020407
253	0xba629715	-0.0008643729
254	0xbd6772ed	-0.056506086
255	0xbc9928ba	-0.018696178

4.weight f4 [256, 256]
0	0x3b20a898	0.0024514552
1	0xbdf726fb	-0.12067982
2	0xbc7c71f9	-0.015408033
3	0xbd1d2c99	-0.03837261
4	0xbda15e8c	-0.078793615
5	0xbbe7cde9	-0.007074107
6	0xbd8c2181	-0.06842328
7	0x3d2ba2fa	0.041903473
8	0xbd9e20fc	-0.07721135
9	0x3d057979	0.03258655
10	0x3e03a6b6	0.12856564
11	0x3dfcd9aa	0.123462036
12	0x3d1e0fda	0.038589336
13	0x3c2e5c4e	0.010642124
14	0x3c581c59	0.013190352
15	0x3d83b810	0.064315915
16	0xbdc778c4	-0.09739831
17	0x3d79fc79	0.061031792
18	0x3de14abc	0.110005826
19	0xbd8c1a82	-0.068409935
20	0x3d411857	0.047142353
21	0x3cc2b86b	0.023769578
22	0x3d9ab42e	0.07553898
23	0xbd7e24d4	-0.06204684
24	0xbd9fe7ee	-0.07807909
25	0xbc9b3b2f	-0.01894912
26	0x3d60de4c	0.0548995
27	0xbd3dbd1d	-0.04632293
28	0x3cf54f86	0.029945146
29	0x3d823f1f	0.06359696
30	0xba6dcae3	-0.0009071065
31	0x3d9b851b	0.07593747
32	0x3c945b33	0.018109893
33	0x3df62c73	0.12020197
34	0x3db9e239	0.09076352
35	0xbbefd108	-0.0073186196
36	0x3cb12f1e	0.021628913
37	0xbd254a57	-0.0403541
38	0xbddca66d	-0.10773931
39	0x3d21baea	0.039484896
40	0xbd6834f7	-0.056691136
41	0x3c62c5bd	0.01384109
42	0xbcfb56cb	-0.030681035
43	0xbcbba999	-0.022908019
44	0x3d8e92d6	0.069616005
45	0x3d2615c8	0.040548116
46	0xbd7fd116	-0.06245526
47	0x3d33af14	0.04386814
48	0xbbfdc924	-0.007744925
49	0xbcde96da	-0.027171541
50	0x3b76e41b	0.0037672583
51	0x3d8dbb3f	0.0692048
52	0xbd0079c4	-0.031366125
53	0x3d44faed	0.048090864
54	0xbbd86292	-0.0066035474
55	0x3ca336d0	0.019923598
56	0xbd30650b	-0.043065112
57	0xbc064395	-0.008194824
58	0xbcce8737	-0.02521096
59	0xbd4d8ba7	-0.05018201
60	0xbd20e3f2	-0.039279886
61	0xbd09d782	-0.03365279
62	0xbaaea0b6	-0.0013323042
63	0x3df6f778	0.1205892
64	0xbcee5498	-0.029093072
65	0xbbc310df	-0.005952939
66	0xbd3381de	-0.043825023
67	0xbc8ddb74	-0.017316557
68	0xbd7d727a	-0.06187675
69	0xbdabc70b	-0.08387574
70	0x3d628ffa	0.055313088
71	0xbdae3189	-0.08505542
72	0xbd2a4053	-0.04156525
73	0x3d7fbeb8	0.062437743
74	0xbd923481	-0.071389206
75	0x3d85c591	0.065318234
76	0xbcd70e3d	-0.026251907
77	0xbbce2c42	-0.006291897
78	0xbd9403f1	-0.07227314
79	0x3c620a0f	0.0137963435
80	0x3d1d44b2	0.03839559
81	0x3d09c8c5	0.033638734
82	0x3df3ad0c	0.118982404
83	0x3d0e19f1	0.03469271
84	0xbd63e92e	-0.0556423
85	0xbd903b2e	-0.07042538
86	0x3d36a5db	0.044591766
87	0xbd36edf7	-0.044660535
88	0xbd2ab12d	-0.041672874
89	0x3d50c5ee	0.05097001
90	0xbd88e41a	-0.06684132
91	0xbd3b44ee	-0.045720033
92	0xbb69a83f	-0.003565326
93	0xbc8f1a7d	-0.017468685
94	0x3c14b495	0.009076257
95	0x3e1b97f6	0.15194687
96	0x3de4aeb7	0.11166137
97	0x3da071a3	0.078341745
98	0x3d624a68	0.05524674
99	0x3c6453b0	0.013935968
100	0x3d39ecd5	0.045391876
101	0xbdb1c436	-0.086800024
102	0xbba8cdae	-0.005151472
103	0xbc4fcdaf	-0.012683316
104	0xbae389bb	-0.0017359772
105	0xbd0a1c12	-0.033718176
106	0x3b4a3afb	0.003085791
107	0x3de6516e	0.11246
108	0xbc8a6f3b	-0.016898742
109	0x3deba737	0.11506503
110	0x3d35c2c5	0.0443752
111	0x3c4b769a	0.012418414
112	0xbd4ee59d	-0.050511945
113	0x3d99fc41	0.07518817
114	0x3c94b39e	0.018152054
115	0x3dc56550	0.096384645
116	0xbd6ced5e	-0.05784356
117	0x3acd7b1d	0.0015676949
118	0x3cb3c292	0.021943364
119	0xbd98ec26	-0.07466917
120	0xbd394cb8	-0.04523918
121	0x3d312f4b	0.043257993
122	0x3dee6e2e	0.11642109
123	0x3d944ff7	0.072418146
124	0xbc59e29a	-0.013298655
125	0xbdce7fb8	-0.10082954
126	0x3cac5685	0.02103735
127	0xbc8a2167	-0.01686163
128	0xbd87911a	-0.06619473
129	0x3cdee9df	0.027211128
130	0xbd8dc502	-0.06922342
131	0x3d272318	0.040804952
132	0x3c2687ed	0.010164243
133	0xba6a6612	-0.0008941601
134	0xbd06de7b	-0.032927018
135	0xbc2c78db	-0.010526861
136	0x3be16636	0.0068786396
137	0xbd4b7460	-0.04967153
138	0x3d7e620b	0.06210522
139	0x3c32fbc6	0.010924285
140	0x3c1f33e0	0.009716958
141	0xbd3563df	-0.044284698
142	0xbc9539b2	-0.018215988
143	0xbd8db45e	-0.06919168
144	0x3d097595	0.0335594
145	0xbd979090	-0.0740062
146	0x3c906039	0.017624008
147	0xbd4d712c	-0.050156757
148	0x3ddcef77	0.10787862
149	0xbd4e3ccc	-0.05035095
150	0x3dca8eb1	0.098904975
151	0xbde3d1d5	-0.11124007
152	0x3c889015	0.016670266
153	0x3cec803a	0.028869737
154	0xbcbeec7f	-0.02330613
155	0xbc3574bb	-0.011075194
156	0xbd27b823	-0.04094709
157	0x3d1f8b36	0.03895112
158	0xbdaf5a3e	-0.08562134
159	0x3dcbba5b	0.09947654
160	0xbc252299	-0.0100790495
161	0xbde15b4f	-0.11003744
162	0xbcc64d0f	-0.024206666
163	0x3bc3f43e	0.0059800437
164	0x3d3714ce	0.044697575
165	0x3d4483f2	0.047977395
166	0xbda5a7ca	-0.08088644
167	0x3c9c9c5d	0.019117529
168	0xbb32287d	-0.0027184777
169	0x3d96ba85	0.073597945
170	0xbd5a8706	-0.053351425
171	0xbd98404f	-0.07434141
172	0xbe0bcdb7	-0.13652693
173	0xbdc309d6	-0.095233604
174	0xbc6c350e	-0.014416946
175	0x3cd39dc3	0.025832063
176	0xbd9d1cfc	-0.07671544
177	0x3d8677ec	0.06565842
178	0xbd49cd89	-0.04926828
179	0xbd23996b	-0.039941233
180	0x3d6754c7	0.056477334
181	0x3e00ec8f	0.1259024
182	0x3d6e8d0f	0.058239993
183	0x3d88d36b	0.0668095
184	0xbb889479	-0.00416809
185	0xbd8e31de	-0.06943105
186	0xbcae159e	-0.021250542
187	0xbc9b2fee	-0.018943753
188	0x3d32eb00	0.043681145
189	0xbda0d231	-0.07852591
190	0x3d79e3c1	0.06100822
191	0xbd378440	-0.044803858
192	0x3d09836b	0.033572596
193	0x3d089d9c	0.033353433
194	0xbd36458c	-0.04449992
195	0xba0dc11f	-0.00054075004
196	0xbdc8906b	-0.097931705
197	0x3d404b09	0.04694656
198	0x3da8bb39	0.08238835
199	0x3d039153	0.032121014
200	0xbdd6e588	-0.10492998
201	0x3c8892b2	0.016671512
202	0x3cda07ff	0.026615141
203	0x3d2c30d6	0.04203876
204	0xbca4bdcb	-0.020110032
205	0x3ccb0e08	0.024786964
206	0xbda47373	-0.08029833
207	0xbc371f44	-0.011176888
208	0x3d538e73	0.051649522
209	0x3d60631b	0.054782014
210	0x3d24fa24	0.040277615
211	0xbd0d0175	-0.034425218
212	0xbbb9b0e8	-0.005666841
213	0xbdda0482	-0.10645391
214	0x3d193307	0.03740218
215	0x3d9057fc	0.07048032
216	0x3c351b44	0.011053864
217	0x3c53ab66	0.012919283
218	0xbd3f787b	-0.04674576
219	0x3d7e737e	0.06212186
220	0xbc98d3b4	-0.018655635
221	0xbd22e125	-0.039765496
222	0xbd3f65aa	-0.046727814
223	0xbc8279ef	-0.015927283
224	0x3d88a9da	0.066730216
225	0x3d025321	0.03181756
226	0x3d437b7e	0.047725193
227	0x3ddc12a8	0.10745746
228	0xbbaa6a99	-0.0052006957
229	0xbd95a111	-0.073061116
230	0xbd3fe233	-0.04684658
231	0x3dca3033	0.098724745
232	0xbd8a3f3c	-0.06750342
233	0xbd851ff6	-0.06500237
234	0x3da86888	0.08223063
235	0xbd3d90e1	-0.046280745
236	0xbd5366fe	-0.051611893
237	0xbc20467d	-0.009782431
238	0x3af1fbe7	0.0018461914
239	0x3d073ee6	0.03301897
240	0x3ddf8006	0.109130904
241	0xbd5ae659	-0.053442333
242	0xbd5627c3	-0.052284013
243	0x3dd8611f	0.105653994
244	0x3e0d8c29	0.13822998
245	0xbd51ccc1	-0.05122066
246	0xbd1da055	-0.038482983
247	0xbd917e28	-0.071041405
248	0x3cff7929	0.031185703
249	0x3c567d92	0.013091462
250	0xbc3eed50	-0.011653259
251	0x3d0356b1	0.032065097
252	0x3c8ff7a3	0.017574137
253	0x3c1ec11e	0.009689597
254	0xbca142f7	-0.019685252
255	0xbc9650f4	-0.018349148

4.bias f4 [256]
0	0xbcf3422e	-0.029694643
1	0xbd20a7fb	-0.0392227
2	0x3d0f8def	0.035047468
3	0x3d7af174	0.061265424
4	0xbd2bd8e4	-0.04195489
5	0xbc9573f1	-0.018243762
6	0x3c12d8a5	0.008962785
7	0xbce94efe	-0.02848005
8	0xbc8c9f1f	-0.017165719
9	0xbb2ffccf	-0.0026853567
10	0xbc846787	-0.016162647
11	0x3d9c4d44	0.07631925
12	0xbc43b3d4	-0.01194473
13	0xbba3cd16	-0.0049988134
14	0x3b3aaff5	0.0028486226
15	0xbd819637	-0.06327479
16	0x3d7112ac	0.058855698
17	0x3cb1c62c	0.021700941
18	0xbc79c228	-0.015244044
19	0x38f8ec2a	0.000118695505
20	0xbc84ad11	-0.016195806
21	0xbd965d51	-0.073420174
22	0x3bdbce1c	0.0067079198
23	0x3d70fedc	0.058836803
24	0x3b4e157f	0.0031445918
25	0x3ba017f1	0.0048856665
26	0xbd937830	-0.07200658
27	0xbd41183f	-0.047142264
28	0x3d65461e	0.055975072
29	0xbd172a78	-0.036905736
30	0xbd463b57	-0.048396435
31	0x3c481ee9	0.012214401
32	0xbd2e9575	-0.042623002
33	0x3d4e6c78	0.050396413
34	0xbd8f76e3	-0.07005098
35	0x3c383ca3	0.011244926
36	0xbca3cce6	-0.019995164
37	0x3cb7cbe8	0.022436097
38	0xbcb5ab9a	-0.022176553
39	0xbd422d67	-0.04740658
40	0xbdae9e83	-0.085263275
41	0xbd88d593	-0.06681361
42	0xbd814135	-0.063112654
43	0x3d106f84	0.0352626
44	0xbe05511b	-0.1301922
45	0xbc0ff7c7	-0.008787102
46	0x3c7422f0	0.014900908
47	0xbd76b8e1	-0.060234908
48	0xbcad8965	-0.021183679
49	0xbd861add	-0.065480925
50	0x3d0197c8	0.03163889
51	0xbcd475cb	-0.025935074
52	0xbddd4d9c	-0.108058184
53	0xbd209ef8	-0.039214104
54	0xbdbf5c38	-0.09343761
55	0xbcb26330	-0.021775812
56	0x3d07d6b9	0.03316376
57	0xbda3f4b1	-0.080056556
58	0x3b73b22d	0.0037185058
59	0xbc6a56eb	-0.014302949
60	0x3cb0f992	0.02160338
61	0x3cb0f6b9	0.021602022
62	0xbb653a89	-0.0034977517
63	0xbb5d830d	-0.0033800036
64	0xbd609d98	-0.054837793
65	0x3d27c6bf	0.040961023
66	0x3bc9b13a	0.0061551603
67	0x3ca9b2fb	0.020715227
68	0xbd845d71	-0.06463135
69	0x3cdb8d5b	0.026800802
70	0x3cc55070	0.024086207
71	0xbd9f81a2	-0.07788397
72	0x3d267939	0.04064295
73	0x3d15c7fd	0.036567677
74	0xbc27798c	-0.01022185
75	0xbd8912a4	-0.066930085
76	0x3cb13b17	0.021634622
77	0xbc66d34f	-0.014088466
78	0xbd6984d0	-0.057011425
79	0xbae36cf8	-0.0017351201
80	0xbdaba52a	-0.08381112
81	0xb989dbdc	-0.00026294484
82	0xbd84bef7	-0.06481736
83	0xbb9c8597	-0.0047766673
84	0xbd549dc9	-0.05190829
85	0xbb6f6eb2	-0.0036534485
86	0xba9f17c7	-0.0012137824
87	0x3b8787e9	0.004136075
88	0xbd727cbd	-0.05920099
89	0xbdf8579e	-0.12126087
90	0xbd6d82cf	-0.057986077
91	0xbd94d309	-0.07266814
92	0xbd842ee4	-0.06454256
93	0xbd4e5089	-0.050369773
94	0x3cadc12c	0.021210276
95	0xbd6e853a	-0.058232524
96	0xbb8d241d	-0.0043072836
97	0xbd98f7bc	-0.074691266
98	0x3d97c99c	0.07411501
99	0xb9f3b7c1	-0.0004648548
100	0x3d4aa741	0.049475912
101	0x3c9269a6	0.017872643
102	0x3d8cec2a	0.06880982
103	0xbd0585a0	-0.032598138
104	0xbc865396	-0.016397279
105	0x3c65a722	0.014016898
106	0xbd906302	-0.07050134
107	0x3d1a12aa	0.037615456
108	0x3d7efa57	0.06225046
109	0xbd34e333	-0.044161987
110	0x3da5cc81	0.08095647
111	0xbd73c8b2	-0.05951757
112	0xbdc8fdba	-0.098140195
113	0x3d2b7ab9	0.041865084
114	0xbde4091b	-0.11134549
115	0x3d041ced	0.03225415
116	0xbd01718a	-0.03160242
117	0xbd68f3eb	-0.056873243
118	0xbce615ba	-0.028086532
119	0xbd523cd9	-0.05132756
120	0x3c387594	0.011258502
121	0xbdce6308	-0.100774825
122	0x3c06cf96	0.008228203
123	0xbd6647d6	-0.05622085
124	0xbd34fbd5	-0.04418548
125	0xbcfbf768	-0.03075762
126	0x3dd651cd	0.10464821
127	0x3d5897dc	0.0528792
128	0x3e0057a5	0.12533434
129	0x3d22ad05	0.039715786
130	0xbd14b021	-0.036300782
131	0x3d00a209	0.03140453
132	0xbd64c9e2	-0.055856593
133	0xbe15a219	-0.14612617
134	0xbc2e2282	-0.0106283445
135	0x3c2ca576	0.010537496
136	0x3d1054a3	0.035236966
137	0x3c1fbe8b	0.009750019
138	0x3ca6203b	0.02027904
139	0xbb14bd2c	-0.0022695763
140	0xbd52a1d7	-0.051423874
141	0xbb2a6816	-0.0026001981
142	0xbd26c1e7	-0.040712263
143	0x3c69ba14	0.014265556
144	0x3d7db33e	0.061938517
145	0xbd1bde46	-0.038053773
146	0xbdb8b728	-0.09019309
147	0x3cb37bb6	0.021909576
148	0xbd4c471b	-0.0498725
149	0xbd396826	-0.04526534
150	0xbd6fd687	-0.0585542
151	0x3d47c85b	0.04877506
152	0xbcb0c42a	-0.021577913
153	0x3dad0d6a	0.08449824
154	0x3c8d210a	0.017227668
155	0xbd182ea8	-0.03715387
156	0xbd4d8b8a	-0.050181903
157	0xbdbbf62c	-0.09177813
158	0x3dd6adad	0.10482345
159	0x3ba0ce4d	0.0049074055
160	0x3cd82cae	0.026388492
161	0xbd08713a	-0.033311106
162	0x3d01fb54	0.031733826
163	0x3cd248c3	0.025669461
164	0x3d0a0a70	0.03370136
165	0x3c97632e	0.01847991
166	0x3c77c394	0.015122313
167	0xbcb6c124	-0.022308894
168	0x3d8b5cf1	0.068048365
169	0xbd82cdb7	-0.06386893
170	0x3c364499	0.011124753
171	0xbd740982	-0.05957938
172	0x3ca220d7	0.01979105
173	0xbc2e405d	-0.010635463
174	0x3cd0f0bc	0.025505416
175	0xbc0a5693	-0.008443492
176	0xbd44eb42	-0.04807592
177	0xbd09cc0f	-0.03364187
178	0xbcc533fe	-0.024072643
179	0x3bbe58c4	0.0058089215
180	0x3cc4b668	0.02401276
181	0xbd82d7a3	-0.06388786
182	0xbae5c799	-0.0017530798
183	0x3d18f541	0.037343267
184	0x3d761ffc	0.060089096
185	0x3d0bf76a	0.0341715
186	0xbc405751	-0.011739568
187	0xbcda914f	-0.026680617
188	0xba6fa3a3	-0.000914151
189	0xbcaf9010	-0.021430999
190	0xbd9e871b	-0.07740613
191	0xbd54984f	-0.051903065
192	0xbc2c1e38	-0.010505252
193	0xbd4350e7	-0.047684576
194	0xbd7ab79e	-0.061210267
195	0x3d9a1470	0.075234294
196	0x3d78ab41	0.060710195
197	0x3c238c1f	0.009982138
198	0xbce361dc	-0.027756624
199	0xbb40983c	-0.0029387614
200	0xbca7ac27	-0.02046783
201	0x3c7d6ee9	0.015468338
202	0xbdd60c47	-0.104515605
203	0xbd01ebd0	-0.03171903
204	0xbd739d15	-0.059475977
205	0xbd79f975	-0.061028916
206	0x3bc5fefd	0.00604236
207	0x3ca0b858	0.019619152
208	0x3d00326e	0.031298093
209	0xbd8debef	-0.069297664
210	0xbc51a863	-0.012796494
211	0x3c39559c	0.011311915
212	0xbcc34dd2	-0.023840819
213	0x3d32f39c	0.043689355
214	0xbca58e00	-0.020209312
215	0x3d875eb9	0.06609864
216	0xbd5af2bd	-0.05345415
217	0xbdcc038e	-0.099616155
218	0xbbe82383	-0.0070843115
219	0x3d404b65	0.0469469
220	0xbce9c85c	-0.028537922
221	0x3c3c38ad	0.011488122
222	0x3d5a4d14	0.053296164
223	0xbc610d1a	-0.013736034
224	0xbcee0950	-0.029057175
225	0x3d2c6613	0.042089533
226	0xbd045efc	-0.032317147
227	0x3c462e8c	0.012096059
228	0x3d80ef05	0.06295589
229	0x3db16847	0.086624674
230	0x3d714874	0.058906987
231	0x3c43c026	0.011947667
232	0x3c370e6b	0.011172871
233	0xbd17a9ee	-0.037027292
234	0xbc2568d7	-0.010095797
235	0x3d894128	0.06701881
236	0xbd9c736b	-0.07639202
237	0xbcd243e8	-0.025667146
238	0xbd9145f5	-0.07093421
239	0xbc150f58	-0.0090978965
240	0xbdb0b8ac	-0.08628973
241	0xbd051111	-0.03248698
242	0xbd1b3571	-0.037892763
243	0xbc72b130	-0.014812753
244	0xbc54abf3	-0.012980449
245	0xbd1ebcb0	-0.038754165
246	0xbc8a10e0	-0.01685375
247	0x3c5a9722	0.013341697
248	0x3dbed5d5	0.09318129
249	0x3be89a6c	0.0070984866
250	0xbd8982cd	-0.067144014
251	0x3d82037c	0.06348321
252	0x3bda071e	0.0066536805
253	0xbdda55b5	-0.106608786
254	0x3d3a92ab	0.04555003
255	0xbd296fa8	-0.04136625

6.weight f4 [1, 256]
0	0xbd90eb58	-0.07076138
1	0x3c982f2d	0.018577183
2	0xbd46d917	-0.048546877
3	0xbc32a2ff	-0.010903119
4	0x3d4d0203	0.050050747
5	0x3c4bfc0b	0.012450228
6	0x3c4aab59	0.012369954
7	0x3cbabbe3	0.02279467
8	0x3cc45dc9	0.023970501
9	0xbbc28fa2	-0.0059375325
10	0x3db03d37	0.08605426
11	0xbe190f6a	-0.14947286
12	0xbb0f0df9	-0.0021828397
13	0x3d469c6f	0.04848903
14	0x3d4ebe24	0.0504743
15	0x3c27d60b	0.010243903
16	0x3dbd1405	0.09232334
17	0xbdbf584c	-0.09343013
18	0x3d834390	0.06409371
19	0xbc919478	-0.01777099
20	0xbd59ffa7	-0.053222325
21	0xbdb75ad7	-0.08952873
22	0xbd899610	-0.06718075
23	0xbc43f483	-0.011960152
24	0x3cb2e614	0.021838225
25	0xbdaed0f3	-0.08535948
26	0xbc59be8b	-0.013290058
27	0xbcabad52	-0.020956669
28	0xbaf23662	-0.0018479342
29	0x3d0d2d6f	0.034467157
30	0x3c4c76f0	0.012479529
31	0xbd161c9e	-0.036648385
32	0xbd0017db	-0.03127275
33	0xbcd4f454	-0.025995411
34	0x3ce8c5ed	0.02841469
35	0xbd675a96	-0.056482874
36	0xbd9e0f26	-0.07717733
37	0xbd3737fc	-0.044731125
38	0x3d3c051d	0.045903314
39	0xbce3bb57	-0.027799292
40	0x3ab06080	0.0013456494
41	0x3d626644	0.05527331
42	0x3cc7b4d5	0.02437822
43	0x3cc12136	0.023575407
44	0x3ba747b7	0.0051049846
45	0x3d212cc6	0.03934934
46	0xbc322215	-0.010872384
47	0xbc304678	-0.010758989
48	0xbcc9d670	-0.024638385
49	0xbb36eaf3	-0.0027911037
50	0x3c07c981	0.008287788
51	0xbd321b00	-0.04348278
52	0xbda1b0f2	-0.07895078
53	0xbc378a04	-0.011202339
54	0xbb68b1f3	-0.0035506457
55	0xbd4e382d	-0.050346542
56	0x3d8c335f	0.06845736
57	0xbd47eb7d	-0.048808564
58	0xbc5c623d	-0.013451156
59	0x3c859f9e	0.016311463
60	0xbc1a7eec	-0.009429675
61	0x3d17c943	0.037057173
62	0x3df9a89d	0.121903636
63	0xbcd3efd9	-0.025871204
64	0xbaacfbda	-0.0013197616
65	0x3c8e7415	0.017389337
66	0xbbf05de2	-0.0073354105
67	0x3c09d6b4	0.008413006
68	0x3d66ac36	0.056316577
69	0x3d5e63c5	0.054294366
70	0xbc3f0002	-0.011657717
71	0xbd7946e4	-0.060858622
72	0xbdd4cf07	-0.1039105
73	0x3d0159e3	0.031579863
74	0x3db6a58e	0.08918296
75	0x3d1a1e03	0.037626278
76	0x3cb8619a	0.022507478
77	0xbcc49791	-0.023998054
78	0x3cdac0dc	0.02670329
79	0xbd88345a	-0.0665061
80	0x3ccb6e01	0.024832727
81	0xbdadb853	-0.08482423
82	0xbcf648cd	-0.030064011
83	0xbbd4ae31	-0.006490492
84	0x3cab371b	0.0209003
85	0xbc4dd8ef	-0.012563928
86	0xbce3be0b	-0.02780058
87	0xbcfe0a9f	-0.031010924
88	0xbd819bad	-0.06328521
89	0x3bdb0155	0.0066835084
90	0x3cfa7cc8	0.030577078
91	0x3c545fb0	0.012962267
92	0xbc562482	-0.013070228
93	0xbd5ad0f4	-0.05342193
94	0xbb7a5da0	-0.0038202778
95	0xbbd78e0a	-0.0065782117
96	0xba953d6e	-0.0011386105
97	0xbba422d2	-0.0050090337
98	0x3c9803ae	0.018556442
99	0x3d5085b9	0.050908778
100	0x3c073767	0.008252955
101	0xbd73335a	-0.059375145
102	0x3e2ecf51	0.17071272
103	0xbd4f5b15	-0.050623972
104	0xbbcc7287	-0.0062392387
105	0xbdbe7632	-0.09299888
106	0xbd0060a8	-0.03134218
107	0xbb04e106	-0.0020275726
108	0xbb01bab8	-0.001979513
109	0x3c3eb8a8	0.011640705
110	0x3d49220a	0.049104728
111	0x3b8d1560	0.0043055266
112	0xbbaa9cfb	-0.005206702
113	0x3b34f442	0.002761141
114	0xbd5a9e45	-0.053373594
115	0x3d50d6c1	0.050986055
116	0x3cc622e8	0.024186566
117	0x3bd29654	0.006426612
118	0xbc314b77	-0.010821215
119	0xbd4bf21a	-0.049791433
120	0xbc008dcc	-0.007846307
121	0xbb4b6b50	-0.0031039305
122	0x3e1529a9	0.14566673
123	0x3d0c29f5	0.0342197
124	0xbdabb44a	-0.08383997
125	0x3c06b5f1	0.008222089
126	0x3d029e2a	0.03188912
127	0xbd68006c	-0.056641027
128	0x3cc6f0bb	0.024284711
129	0x3dd645b9	0.10462517
130	0xbd237f95	-0.039916594
131	0x3d64a8a3	0.055824887
132	0x3c6fec7a	0.014643783
133	0xbcef3e79	-0.029204594
134	0x3d16d582	0.03682471
135	0x3bc7db1b	0.0060991175
136	0xbd93040f	-0.071785085
137	0xbd5b4cde	-0.053540103
138	0xbbabaada	-0.005238873
139	0x3bf5d78f	0.007502503
140	0x3d135216	0.035966955
141	0x3c05a373	0.008156645
142	0x3e0e6d93	0.13908987
143	0xbcb6bc2a	-0.02230652
144	0xbda8fa20	-0.082508326
145	0x3d6cd630	0.057821453
146	0xbc94f004	-0.018180855
147	0x3cad30bf	0.021141408
148	0xbc703fe4	-0.01466367
149	0x3c111c0a	0.008856783
150	0xbcbb520f	-0.022866277
151	0x3dbd97e2	0.09257485
152	0xbbe1dcbb	-0.006892768
153	0x3d39666c	0.045263693
154	0x3c9e1e1f	0.019301472
155	0x3c02c0a0	0.007980496
156	0xbacc6699	-0.0015594541
157	0xbb3d7081	-0.002890617
158	0x3caf24fb	0.021379938
159	0x3d140576	0.03613802
160	0xbc824ddb	-0.015906265
161	0x3b17c046	0.0023155375
162	0x3d4980f3	0.04919524
163	0xbca450ab	-0.020057997
164	0xbdaac0b0	-0.083375335
165	0x3d0a791b	0.0338069
166	0x3db88ff6	0.09011833
167	0x3c615f90	0.013755694
168	0x3cb3dd0e	0.021955993
169	0x3cd7e97a	0.026356447
170	0x399b348b	0.0002960305
171	0x3bae849b	0.0053258664
172	0xbdcec5c5	-0.10096315
173	0xbd981869	-0.07426531
174	0x3cc43cf9	0.023954855
175	0xbd452520	-0.04813111
176	0xbc0e2c77	-0.008677593
177	0x3c9f33c8	0.01943387
178	0x3d186952	0.037209816
179	0xbcecc7ea	-0.02890392
180	0x3b45c23c	0.0030175587
181	0xbabac018	-0.0014247922
182	0x3c9b7b2d	0.018979633
183	0xbbbe61a3	-0.005809979
184	0x3da0834b	0.07837542
185	0x3c9d36da	0.019191194
186	0x3c89f069	0.01683827
187	0xbc964323	-0.01834256
188	0x3cdb8c97	0.026800437
189	0xbd8e5d75	-0.06951419
190	0xbcb7dcc3	-0.022444135
191	0xbc1490b2	-0.009067701
192	0x3ca37d0e	0.019957092
193	0xbc4923a3	-0.012276563
194	0xbc573c0d	-0.013136876
195	0x3d3c3d95	0.045957167
196	0x3ce58b24	0.028020449
197	0x3cf80687	0.03027655
198	0xbc79b55e	-0.015240995
199	0xbd36b877	-0.044609513
200	0xbb57d391	-0.00329325
201	0xbcac9906	-0.021069061
202	0xbb703df1	-0.0036658014
203	0x3d074e2c	0.033033535
204	0x38c6ff5e	9.4889416e-05
205	0xbcf68f8f	-0.030097751
206	0x3bf3688d	0.007428235
207	0x3d49bb3a	0.04925082
208	0x3c7b7754	0.015348274
209	0x3c3655ea	0.011128882
210	0x3d3fdffb	0.046844464
211	0x3cd8aa8f	0.026448516
212	0x3ce7ac85	0.028280506
213	0x3d351597	0.044210043
214	0xbd17f8bd	-0.03710245
215	0xbc2396d2	-0.009984689
216	0xbe2062f0	-0.15662742
217	0xbca86bdc	-0.020559244
218	0x3ca84129	0.020538883
219	0xbbb430a3	-0.005498962
220	0x3cc36ea5	0.02385647
221	0x3dcfef77	0.10153096
222	0xbd028031	-0.031860534
223	0x3ca1423d	0.019684905
224	0x3cc16880	0.0236094
225	0xbbc1a7a6	-0.005909878
226	0xbbc65040	-0.006052047
227	0x3c2136f4	0.009839762
228	0x3cbc2757	0.022967977
229	0x3d3697bc	0.0445783
230	0xbbc675a6	-0.0060565053
231	0x3b36a81c	0.0027871197
232	0xbd886823	-0.066604875
233	0xbbba1b89	-0.005679552
234	0xbb0a6480	-0.0021117032
235	0xba8b78b1	-0.0010640827
236	0x3c082d1b	0.008311535
237	0xbd97b638	-0.07407802
238	0xbcbd04c8	-0.023073569
239	0x39bbe3db	0.00035837185
240	0xbcf482e5	-0.029847572
241	0xbda9504e	-0.0826727
242	0x3c9fd69f	0.019511519
243	0x3d3578aa	0.044304527
244	0xbba5cbbb	-0.005059687
245	0x3c5a9133	0.013340282
246	0xbc524eb9	-0.012836152
247	0x3d891160	0.06692767
248	0xbbdb16d9	-0.0066860733
249	0x3c7de8f4	0.015497435
250	0xbc2117de	-0.009832351
251	0x3d9d9092	0.0769359
252	0xbc3ae9f3	-0.011408317
253	0xbc506bbe	-0.012721
254	0x3d5582bb	0.052126627
255	0x3c53804c	0.012909006
