Navigation/exp/CrowdSim-v0/H1024_L2_lr0.0001/teacher_b-1_g1_m0_s0_e0/label_smooth_0.0/schedule_0/ActiveLearning/reward_model_4000_0.pt (torch, 567631 bytes, 7 tensors)

0.weight f4 [256, 36]
00000000: d5da 01bd 25d8 82bd 928b 9ebc bcd5 3c3d
00000010: 7564 02bb 22c4 c53d 7b86 eb3d 1975 cebd
00000020: 41a8 5bbe 3f46 d83c 1607 a23d 08a9 75bd
00000030: c741 79bd 3e8c e13d 4850 023e 47dc ea3b
00000040: 73ae a3bd 3da6 a63d b989 8a3d 50f1 8c3d
00000050: 0ff4 e9bd 9093 95bd 4d69 893c 485d 403d
00000060: 816b f63c 45a5 a0bd d8a9 c9bd f66a 273e
00000070: fb0e 5b3d 265a 913c b096 433e e3dd 20be
00000080: 8c61 c1bd 33e6 14be bd5a 28be b8b6 b03d
00000090: 261e f4bc 8bfa 163e f15e 2d3e 83a2 4abe
000000a0: 4040 b33d 5d23 11be 7523 0a3d dc72 ad3d
000000b0: c336 e9bd 00a1 9a3d 56f4 1abc 17d3 143d
000000c0: f041 b93c 1ed6 0cbd 7fc7 56be 85b0 4b3d
000000d0: a2f4 13be a007 b7bc e00e fbbd 4547 59be
000000e0: 6615 c8bc ddd0 a6bd aaff b63d a089 3a3d
000000f0: 0bbe 17be f12a 423d 4f64 05be 9a90 91bd
00000100: 5b85 163e 6d40 15be 6528 64bc e08c ccbc
00000110: 523f c83c 9907 8e3c 3f8a 43bc e8aa 8abd
00000120: e57e 15be bee4 fabd 2e6b 2d3d 9aaf 3d3e
00000130: cc20 fc3d 9b52 573e 429a a6bc cac5 a4bd
00000140: 7f45 14be 9808 dc3d 5244 0bbe 2e2b 2abd
00000150: 8605 9b3d ddb1 98bd 21f9 d2bd 98db f93a
00000160: e2bd 483e ec57 0d3d 0e49 b7bd e409 97bc
00000170: 56d5 f4bd 357e 013e 440e bebd 5eef 12be
00000180: 32e9 a13c 2db2 823c c427 823d 498a 193e
00000190: f0ba 4ebe 8bc9 29be 67dc babd d731 14be
000001a0: 5ffa 76bd f8ed 693d ddf5 1e3e a627 193d
000001b0: bf2e f7bd 5c23 8cbd 3322 bd3d b1e5 fcbd
000001c0: a489 c7bd 576c debc afe1 33bd f8b3 62bd
000001d0: 31ec 8b3c fea0 1ebe 2486 323d 8773 083d
000001e0: 8f7c 023d 5786 7fbd 880a ab3d c9ae 943d
000001f0: f671 9f3d 85f1 8a3b c7ba 50bd fda5 09bd
00000200: dd18 2ebd 8797 11be d99f 5ebd 35b1 123c
00000210: 59ae 83bd 03aa 9dbd 227f dabd 508a 823d
00000220: 8414 b53c d322 34be 4bab 783d 4011 713d
00000230: 7e7e aebd 1685 8a3d 7659 b93d b7d4 bbbe
00000240: 6ed7 783d d114 cf3d 6578 6bbe 1b8a 8d3c
00000250: 72b0 fc3d a9ae 9a3b d4d2 d23c dfe0 2c3c
00000260: ca5e 5d3d 92e4 093e ad57 29bd c47c 9d3d
00000270: f4b3 e3bd 6356 11be 3066 2abd 363f c13d
00000280: 5797 e4bc 15f6 85be c4c3 6e3e f8a4 f43d
00000290: 6aef 193d 4435 b13d 6276 dd3d c546 193e
000002a0: 507c 19be 65bf eebc 9cab 7a3d 903e 01be
000002b0: 4d0e 563c e4af 883d eedd fc3c 209c cfbc
000002c0: 1880 c7bd ae10 ab3c 2b5a 3c3e 3eca 583a
000002d0: faf9 ba3d 1f9b 04bd 5113 3abe e546 443d
000002e0: e549 073e 9c1f 423e 75bf aa3d 6349 ddbd
000002f0: 56e6 19be 7f42 bc3d dc38 e0bd a9a1 d4ba
00000300: d9db 2ebe fb2d 5d3d f0f7 5e3d 073d f1bd
00000310: 7d27 0b3e c26b 063e d4cb 58bd 03ca 04be
00000320: 0d49 9fbd 0d15 41be 6971 3b3e 137d eb3d
00000330: 77d7 aabd 7f46 77bd e815 1c3d 93b8 e13c
00000340: ea2d 81be f808 7c3d f21b 8dbd cba2 13bd
00000350: a636 f2bd 4672 9c3d 9975 453e 95b0 94bd
00000360: 77b9 e5bc 3461 033d 524b 29bd f267 9c3d
00000370: fac1 1fbe 1086 95bd 7c03 9bbb 404b 42bd
00000380: 0da6 3ebe ff9a 14be 1bc0 083c 7d8d a2bd
00000390: 9a76 343e 4b2b 32be 8c4a 01be fb43 a93c
000003a0: f031 6ebd 37f1 37be 5269 2bbe 9095 2fbd
000003b0: 13a0 7a3d ad3c 0a3d 92d9 f5bd 7b8d 71bd
000003c0: fa0a ff3d 0d6b 0cbe 1634 87be 2bd5 323e
000003d0: 5f5d 30be 9ec6 193d 24ba 00be 1bf2 e33d
000003e0: 7bc5 1ebe 98c0 dcbc 8d79 c33c b412 d6bd
000003f0: 6612 32bb ca40 423e 41bf 153d 785f 0c3d
-0.031702835 -0.063888825 -0.019353662 0.04610227 -0.0019896303 0.0965655 0.115002595 -0.10080928
-0.21450903 0.026400683 0.07911508 -0.059975654 -0.060853746 0.11013077 0.12725937 0.0071673724
-0.07992258 0.08137176 0.0676455 0.06881964 -0.114235036 -0.07303536 0.016773844 0.04696396
0.030080559 -0.07844023 -0.09846848 0.16349396 0.053481083 0.017743181 0.19100451 -0.15709643
-0.09442434 -0.14540939 -0.16440864 0.08628601 -0.029799532 0.14744012 0.16930749 -0.19788556
0.08752489 -0.14173646 0.03372522 0.08469173 -0.11387398 0.075502396 -0.009457668 0.036334123
0.02261445 -0.034383886 -0.20974539 0.04972889 -0.14448789 -0.022342503 -0.122586966 -0.21218593
-0.024424266 -0.08145306 0.08935483 0.045541406 -0.1481859 0.047404233 -0.13026546 -0.07107659
0.14699309 -0.14575358 -0.013925646 -0.024969518 0.024444256 0.017337607 -0.011934816 -0.06770879
-0.14599188 -0.1225066 0.042338543 0.18524018 0.12310943 0.21027605 -0.020337228 -0.08045538
-0.14479636 0.10743827 -0.13600281 -0.041545086 0.07569413 -0.074558 -0.10301424 0.0019062636
0.19603685 0.034507677 -0.08949481 -0.018437333 -0.11954753 0.126458 -0.09280065 -0.14349124
0.019764517 0.015954101 0.06355241 0.14994158 -0.20188498 -0.16580789 -0.0912407 -0.14472137
-0.060297366 0.05711171 0.15523477 0.037391327 -0.12069463 -0.06842682 0.092350386 -0.12348498
-0.0974305 -0.02715127 -0.0439164 -0.055347413 0.017080398 -0.15491101 0.043584958 0.0333133
0.03185707 -0.062383976 0.08351618 0.072599 0.07785408 0.004240217 -0.050959375 -0.033605564
-0.04250418 -0.1421796 -0.05435166 0.008953382 -0.064297386 -0.07698443 -0.1066878 0.06374037
0.02210451 -0.1759141 0.060710233 0.05885434 -0.0852022 0.067636654 0.090502664 -0.36685726
0.060752325 0.10111392 -0.22995146 0.017277768 0.12338342 0.004720528 0.025735296 0.01055166
0.054045476 0.13466099 -0.04134338 0.07689813 -0.11118308 -0.1419311 -0.04160136 0.09435885
-0.027904196 -0.26164308 0.23316866 0.11945528 0.03758184 0.08652738 0.10813595 0.14968403
-0.14988828 -0.029143998 0.061198816 -0.12621522 0.013064933 0.066741735 0.030867543 -0.025343
-0.09741229 0.020881977 0.18393771 0.00082698825 0.091297105 -0.032374498 -0.18171431 0.047919173
0.13211782 0.1895737 0.08337299 -0.10805013 -0.15029272 0.091923706 -0.10948345 -0.0016222495
-0.17076053 0.05399893 0.05443567 -0.11779218 0.13589282 0.13127044 -0.05292876 -0.12967686
-0.07777605 -0.18855686 0.18304981 0.114984654 -0.08341878 -0.060369965 0.03810683 0.027553832
-0.25230342 0.06153199 -0.06890096 -0.036043923 -0.118268296 0.076389834 0.19283141 -0.07260243
-0.028042538 0.032075122 -0.041331597 0.076370135 -0.1560134 -0.07300961 -0.00473064 -0.047435045
-0.18618031 -0.14512251 0.008346583 -0.07937143 0.17623368 -0.17399327 -0.12626094 0.020662298
-0.058153093 -0.1796311 -0.16739395 -0.042867243 0.061187815 0.03374927 -0.12004389 -0.058972817
0.124532655 -0.13712712 -0.26406926 0.1746413 -0.17223118 0.03754293 -0.12571007 0.11130162
-0.1550502 -0.026947305 0.02386167 -0.10452786 -0.002717161 0.18970028 0.036559347 0.034270734

0.bias f4 [256]
00000000: 628a 16be 17a8 b13d f163 41bb b04c 3a3d
00000010: 9f7a aebd eb18 26bb 502f 713d d9a7 13bd
00000020: bd89 7c3c 01ff 673d 06fd 52bd f7f0 c7bc
00000030: 7df0 013e 30c2 5a3d 4035 113c 677f f1bd
00000040: c1ed 32bc 0ebe 2c3d e8ae a2bd 05ce 46be
00000050: 1e06 c83d 8cc6 143c da5d 9b3d dec6 f8bd
00000060: c243 d3bd da98 0cbe db73 d43d 592a 0dbe
00000070: e9cd 38be 3373 a1bd dde3 0fbe 1986 8bbd
00000080: 090d 17be 52e9 a7bd 2dbd 06be d742 00be
00000090: a6c9 6639 0723 103e b209 ffbc e416 3dbe
000000a0: adb3 05be 5693 38be 8ea2 10be 1634 85bd
000000b0: d66c 84bd 320f c9bc 1dc7 f5bd fc5a 35bd
000000c0: b20e 833c 97b2 273e 01d4 cabd 5f90 9cbd
000000d0: 2383 01be 95bc ab3c 32b5 0dbe a7a8 ffbd
000000e0: 237a d33d f895 0bbe c4e8 44be 705b ce3d
000000f0: cac2 aa3d 31ed b13d 1eff e9bd 15d8 aa3c
00000100: 2436 17be fc9a e13d 3ea4 b83d ace9 bebd
00000110: 839a 43bd 64ef 473b fd15 013e 8cef 58be
00000120: c1c7 06be 4e40 373d 607f 273d 5caf 05bd
00000130: 342a 9b3d b5d0 143e 4eab 0bbe 2684 c13d
00000140: edf7 5abe c06f 5b3d d24d c63d 41bf d7bd
00000150: ba59 0cbe 1f35 d3bd 4e10 4f3d d047 0e3d
00000160: fe09 c8bd 4050 933d 3e11 0d3d c75b a53c
00000170: d59f 0a3e d046 cfbc 941f 15be 12c1 b6bd
00000180: bc1a 97bd c52f ebb9 bc33 b6bd 6b15 2f3d
00000190: bc29 8fbd 062d e33c e239 1cbd b3e2 a7bd
000001a0: fc67 bcbd 92e1 0ebe 87fc 5a3d 86e4 07be
000001b0: 8ab1 15be c248 bf3d 73b3 ea3b c3fd cc3d
000001c0: 4280 833d 0791 00be 013f 9ebd 80ce 90bd
000001d0: 6e50 de3d c9ae 20be ca16 c83d 8a82 4dbd
000001e0: 82b9 9dbd a22d 3fbd 591e 10bd 6806 38be
000001f0: 3af9 27bb 250f c5bd 91e7 a63d bb92 84bc
00000200: c684 303e 68b5 873c e902 7bbd 031f 653c
00000210: bb98 34be 1a5e cbbd 5fe9 d73d ca3f a63c
00000220: 4e11 853d 6bf0 d8bd e914 ae3d 7b2d 653d
00000230: b79c 083e 2ca3 77bd a420 a7bd 08c6 b03c
00000240: cf29 07bd 18d1 e03d fd09 2fbe de26 34be
00000250: 2e84 773d 7309 cabd 43b2 44be 4781 8c3d
00000260: 182a 18be d0d9 16be 716e 87bb 592b e63d
00000270: 97bd 3bbd c55e 27bd 5729 89bd fede b5bd
00000280: 6c28 0e3a 74e0 e6bd d699 d93c 1dce f0bd
00000290: 062f d7bd 1579 1ebb 476a 2fbe f0b9 4abe
000002a0: 8bd0 f23d c550 62bd 46d0 1bbe 67f2 4bbd
000002b0: cb3b 8dbd 46cb 68bd e93d f8bd 6a41 963c
000002c0: 01af debd fa6b 8a3c ddef 07be 1b44 05be
000002d0: fa91 b23d 7b4d cd3d 67b9 a13d afd7 183e
000002e0: f77a f33d dce5 59be 6d5f 6a3c ccc4 bebd
000002f0: 5c12 8e3d 8ffb 24be efb4 223d 240f bc3d
00000300: 994d 0ebe 14d9 e7bd e241 26be 6eb9 9bbd
00000310: 9953 85bc 07a2 f53d d9b7 98bd 9177 1cbe
00000320: c6ef 91bd 2678 a53d 11fc 6c3d f325 53be
00000330: 000f b73b 14b8 55be 9a8f 2cbe ce1b 91bd
00000340: 0965 503d 317f f8bd 04c1 703c 5988 1d3d
00000350: 06b1 b03d e0fb 3c3d a3f8 adbd 965b 1abe
00000360: 3ffd cf3b a625 003e d7c3 0fbe 1d42 9c3c
00000370: 4fc6 8ebd a19a 26bc 17b9 bebc d699 e5bd
00000380: a5f8 f23c de73 bc3d 148c 813d 6e9c 1abd
00000390: 5b06 80bd d540 f7bd f267 a3bd ebfd 86bd
000003a0: f5a2 9d3b 5779 6c3d cae8 f6bc 4f39 b33d
000003b0: f98c 503c 802c 54bc 3954 75bc 6974 96bd
000003c0: e7b1 f53d 604d 80bd b571 183e cb6b 77bd
000003d0: 3ae0 3f3d 4ed9 b33d bded b23d 207e 46bd
000003e0: 3f3b a0bd 995d c3bc 97ec b63d 9c36 fdbb
000003f0: a94c efbd 5064 48bd 1914 e33d 0004 aebc
-0.14701226 0.08674639 -0.0029509033 0.04548329 -0.08519482 -0.0025344442 0.05888301 -0.036048744
0.015413699 0.056639675 -0.051510833 -0.024406893 0.12689395 0.053407848 0.008862793 -0.11791878
-0.010920943 0.042173438 -0.07943517 -0.19414528 0.09766792 0.00908054 0.0758626 -0.12147306
-0.10315658 -0.13730183 0.1037366 -0.13785686 -0.18047298 -0.07883301 -0.14051767 -0.068126865
-0.14751066 -0.08198799 -0.13158102 -0.12525497 0.00022009629 0.14075862 -0.031132553 -0.18465763
-0.13056822 -0.18024954 -0.1412451 -0.06504075 -0.06466071 -0.024543379 -0.120008685 -0.044276223
0.015998218 0.1637672 -0.09903718 -0.07644724 -0.12647681 0.020963946 -0.13838652 -0.1248334
0.1032603 -0.13631427 -0.19229418 0.10076034 0.08337934 0.08687819 -0.11425613 0.020854989
-0.14766747 0.11015889 0.09015702 -0.09321913 -0.047754776 0.0030507678 0.12606044 -0.2118513
-0.13162138 0.04473906 0.04089296 -0.03263794 0.07576409 0.1453274 -0.13639566 0.094490334
-0.21383639 0.05357337 0.09682812 -0.10534526 -0.13706103 -0.103128664 0.05055266 0.034736454
-0.09767531 0.07193041 0.03444027 0.020185364 0.13537534 -0.02530232 -0.14562827 -0.08923544
-0.07378146 -0.00044858284 -0.08896586 0.042745035 -0.06990382 0.02773143 -0.03814114 -0.08197536
-0.09199521 -0.13953236 0.053463485 -0.13270769 -0.14618507 0.09340049 0.0071625053 0.10009339
0.064209476 -0.12555324 -0.07726861 -0.07070637 0.108551845 -0.15691675 0.09769972 -0.05017332
-0.077013984 -0.04667438 -0.03518519 -0.17971194 -0.0025630728 -0.09622029 0.081496365 -0.016183248
0.17238149 0.016565993 -0.061282072 0.013984445 -0.17636387 -0.09930058 0.10542559 0.020294089
0.06497441 -0.10592731 0.08500082 0.055951577 0.13341032 -0.060458347 -0.081605226 0.021578804
-0.032998856 0.109773815 -0.17093654 -0.17592952 0.06042879 -0.098650835 -0.19208626 0.06860595
-0.14859807 -0.14731526 -0.0041330387 0.11238737 -0.045835104 -0.040861864 -0.06697338 -0.08880423
0.00054228934 -0.1127328 0.026562613 -0.11758063 -0.10507016 -0.0024181057 -0.17130385 -0.19797492
0.11856183 -0.05525281 -0.15216169 -0.04979172 -0.0689617 -0.05683448 -0.121211834 0.018341739
-0.10873223 0.01689719 -0.13275094 -0.13014261 0.08719249 0.10024544 0.07896691 0.14926027
0.11888688 -0.2127909 0.014304978 -0.0931488 0.069370955 -0.16111587 0.039723333 0.09182575
-0.13896789 -0.11320701 -0.1623607 -0.07603727 -0.016275214 0.11993795 -0.07456941 -0.15279986
-0.07125811 0.08079557 0.057857577 -0.20619945 0.005586505 -0.20871001 -0.16851655 -0.070853814
0.050877605 -0.12133635 0.014694456 0.03846011 0.086275145 0.046138644 -0.08494689 -0.15074
0.006347328 0.12514362 -0.1403955 0.019074494 -0.06971418 -0.010168702 -0.023281617 -0.112109825
0.029659579 0.092017874 0.06325546 -0.03774684 -0.06251212 -0.120729126 -0.0797881 -0.065914
0.0048106858 0.057732906 -0.0301403 0.08751165 0.012728923 -0.012950063 -0.0149736935 -0.07346422
0.11996823 -0.06264758 0.14887126 -0.060405534 0.0468447 0.08781682 0.08736751 -0.048460126
-0.078238 -0.023848342 0.08931845 -0.007727457 -0.11684544 -0.04892379 0.11087818 -0.021242142

2.weight f4 [256, 256]
00000000: 124b 08bd 76ad 443d f350 ddbd cb8e 423d
00000010: 01b4 f33d a826 81bd b3ea 5a3d 2f87 f3bd
00000020: 0b00 a73c 7cac 6a3d 657f b5bc de55 ce3c
00000030: f1d4 9d3a f7f3 19bd 31d2 093d 0284 b03d
00000040: 89c4 95bc 8d7d 5e3c c29a 663d b95d 87bd
00000050: 86b5 003e 85e3 913c 1d7b 7a3c 292d 99bb
00000060: 7b68 c6bc 33c3 2f3c 028a 6e3c e2c0 4d3d
00000070: 5271 f23d 7c94 d1bb f0b2 393d 93a1 073d
00000080: 9861 113d db3d 313c d0be af3b af1c 5dbd
00000090: 9df5 d23c a791 5fbd 9666 91bc f7ef 813d
000000a0: 1852 83bd 624a c0bc 8567 663c 6b85 103d
000000b0: 7f18 a1bd 0591 a33d c137 edbc 4ef3 493d
000000c0: d255 29bd c3f2 84bc ab10 943c 05b4 663c
000000d0: 5b87 913d 5918 c93c b565 f73b 3f4b f93d
000000e0: d715 d8bc 0e80 f4bd 7965 6a3c e6b6 583d
000000f0: 1e85 673d e8cf 74bd c3a7 4d3d 279e 5e3d
00000100: e02c 0fbc 0b6d 80bd 9b5c 1ebe b1c7 313d
00000110: 0fb1 893d 5fbe 66bd fb34 2ebc 1077 03bc
00000120: 6899 3ebd 1127 033d 4bc8 41be e8d5 943d
00000130: 5cd4 873c 9da8 493d a69e 87bc 2288 393c
00000140: 44fb 10bd 6f59 7c3c c8e1 c13a 1038 a13d
00000150: b9b1 8e3d b07c 553d 02f5 4b3c 1567 c6bc
00000160: 7ca1 00bd 1e96 8f3b 4bdb 823d 7609 d83c
00000170: eb4b d9bc 7ef8 733d dfe5 0cbc 23e9 5dbe
00000180: 9b34 433d adf0 793d 2de0 76bd 0d2f 39bc
00000190: a696 993d 22cd 8a3d d323 e23d 0cea 2dbd
000001a0: b2da e93b 698b e53b 11cc 593d ae38 a5bd
000001b0: 0510 3d39 e67e d6bd 7eb4 9a3d 1376 53bd
000001c0: f6ac f73d 7fc0 6dbc cf86 28be efd4 273d
000001d0: dafb 7d3c 9b9d 6f3d e7a7 a1bb a10c 403d
000001e0: d040 05bd 324e 4fbc b9ad f0bd 4785 4b3d
000001f0: 63e6 213d 95f0 023d 1876 943d 2629 dabd
00000200: 7853 583c c7f4 103d 600b c6bc b79a a8bd
00000210: b20b adbd 6edc 713d 99f8 6d3d 5161 7f3d
00000220: c13f b8bd bbbd 863c d8b9 4bbd ad04 34bc
00000230: a936 4fbd 0cce 043b 8c88 883c 37fe 543d
00000240: 97fe 843d d710 a5bd 280b f9bd d6ff 263d
00000250: 7a7d 52bc 6037 273d 5c6a e53c 2d0c 893c
00000260: fd24 42bd c157 3fbd f6e8 06bd 2d67 4f39
00000270: f974 8b3d d6cc 4f3d d52d 193d 3e1d 803d
00000280: c7e6 f2bd 4146 8b3c 6436 f33c fb5e 80bb
00000290: 6d32 683d 22b3 703c 5043 233d 2c74 da3c
000002a0: 4fc0 eebd b134 c5bd 313f e0bd b581 b8bc
000002b0: 3820 27bd c8b7 073d 4647 ecbc 457c 3cbd
000002c0: 7ec6 ce3c bad8 80bd 9e7a a7bc b064 563b
000002d0: fe0e a5bc 19a8 fa3b 3c9e d7bb ca39 993c
000002e0: 616f 0bbd ded5 a63d 8470 0d3d a62d 3b3d
000002f0: 3d93 883d 39f2 313d 2a62 f23c 0469 5fbc
00000300: 8d09 df3c 3aa9 cebb 1772 c2bd 1373 f53b
00000310: fd47 a2bc fa70 84bd f86d f2bc 942e 573d
00000320: 0468 7ebc 8e12 6c3c 3da0 47bc 5e09 393d
00000330: 144a 8e3a 1d20 753d 04f3 4b3d 96e5 193d
00000340: 7149 7abd 396f 81bd 2b2d cb3d 0ce6 ebbc
00000350: b02f e93b 3316 4a3b 596d 7d3c 9f05 41bd
00000360: b16a 99bd 6839 703d e470 2ebd df8b 48bd
00000370: 40a8 f7bc a2b4 8a3d 1a20 6c3d b9d7 553d
00000380: fa07 b9bc 8cba 46bd 0608 72bd cc27 cd3d
00000390: 6824 093d beb0 263d 63f5 143c 64f1 7dbc
000003a0: 04ae 6d3d 5f5a a6bd dc9c 41bd 8960 b2bc
000003b0: d310 813d aed3 ae3d 6f2a 3a3d e3bd 553d
000003c0: 85f5 623d 7f92 3f3d 9bc0 89bd 7bb2 bc3c
000003d0: d2c9 983d fc36 463d 7e4a af3d c0b9 a53c
000003e0: 5100 4abd ce5e 30bc 095c b0bd bd3b 933c
000003f0: e474 2abc 3f07 a73d 9041 b53c 4e2d 193c
-0.033274718 0.048016988 -0.108064555 0.04749946 0.118995674 -0.06306201 0.053446483 -0.118910186
0.020385763 0.0572934 -0.022155473 0.025187429 0.0012041611 -0.03758618 0.03364772 0.086189285
-0.018282192 0.013579738 0.056299932 -0.06609673 0.12569246 0.017808685 0.015288142 -0.004674573
-0.024219742 0.010727691 0.014559271 0.050232776 0.118380204 -0.0063958745 0.045336664 0.033113074
0.035493463 0.01081797 0.005363323 -0.053982433 0.025751883 -0.054582264 -0.017749112 0.06344598
-0.064121425 -0.023472968 0.014062767 0.035283487 -0.078660004 0.07986645 -0.02895725 0.0493043
-0.04134161 -0.016229039 0.018074354 0.014081006 0.07105895 0.024547743 0.007549966 0.12172555
-0.026377602 -0.11938487 0.0143064195 0.0529088 0.056523435 -0.059768587 0.05020882 0.054350045
-0.008738726 -0.06270798 -0.15465014 0.04340333 0.06723224 -0.056333896 -0.010632749 -0.008023992
-0.04653302 0.03201968 -0.18924062 0.07267362 0.016580753 0.049233068 -0.016555142 0.0113239605
-0.035395876 0.015402182 0.001479202 0.07872021 0.06967492 0.052120864 0.012448551 -0.024219075
-0.031404004 0.004381909 0.06389483 0.026371699 -0.026525458 0.059563152 -0.008599727 -0.21670966
0.04765759 0.061020542 -0.060272384 -0.011302722 0.07499437 0.06777407 0.11041989 -0.042459533
0.007136666 0.0070051444 0.05317313 -0.080674514 0.00018030412 -0.10473423 0.075539574 -0.051626276
0.120935366 -0.014511227 -0.16457675 0.040974554 0.015501941 0.058499914 -0.0049333456 0.046887044
-0.032532513 -0.012652921 -0.11751885 0.04968765 0.039526355 0.03196772 0.07249087 -0.1065238
0.013203494 0.035389688 -0.024175346 -0.082326345 -0.08449496 0.05904811 0.05809841 0.062348668
-0.08996535 0.016447892 -0.04973778 -0.010987443 -0.050589237 0.0020264415 0.016666673 0.05200025
0.06493872 -0.080598526 -0.12160331 0.040771328 -0.012847299 0.040824294 0.028004818 0.016729439
-0.047398556 -0.046714548 -0.032937013 0.00019779494 0.0680942 0.050732456 0.037397224 0.062555775
-0.118604235 0.017001273 0.029689021 -0.0039175726 0.056688715 0.014691146 0.039859116 0.026666723
-0.11657774 -0.09629191 -0.10949553 -0.022522787 -0.04080221 0.03313425 -0.02884258 -0.04601695
0.025241133 -0.06291337 -0.02044421 0.0032713823 -0.02014875 0.0076494333 -0.0065801423 0.018704314
-0.034041766 0.08146261 0.03453113 0.04569783 0.066687085 0.043443892 0.029587824 -0.0136358775
0.027226234 -0.0063067945 -0.09494417 0.0074905246 -0.019809717 -0.06466861 -0.029593453 0.052534655
-0.015527729 0.014408721 -0.0121842 0.04517495 0.0010855817 0.05984508 0.049792305 0.037572466
-0.061105195 -0.06320042 0.099207245 -0.028796218 0.0071162805 0.0030835986 0.015467965 -0.0471245
-0.07491053 0.058648497 -0.04258813 -0.048961516 -0.030231595 0.06772734 0.057647802 0.052207682
-0.022586811 -0.04851775 -0.059089683 0.10017356 0.033481985 0.0406959 0.009091708 -0.015499447
0.058027282 -0.08122706 -0.047268733 -0.021774547 0.06302037 0.085364684 0.045450624 0.052183043
0.055409927 0.04677057 -0.0672619 0.023034325 0.07460369 0.04839228 0.0855913 0.020230174
-0.049316708 -0.010764791 -0.08611304 0.017972821 -0.010403845 0.08155679 0.02212599 0.00934918

2.bias f4 [256]
00000000: 06e7 2f3d 5762 dfbd 74c4 d03c 8a0b b2bc
00000010: 3e7b b2bd 79bc 9f3d 3b47 213c 412d 07bd
00000020: e1cf c3bd 1b1d 3cbd 3b2a afba 6482 90bd
00000030: c452 b8bc 54b2 023d decc 57bd 9933 8ebc
00000040: cc3e 70bc 2e3a 05bd 049b 5e3d 89ac 19bd
00000050: 13f7 d93b a557 89bd 26c0 94bd c9b2 e2bb
00000060: 92d1 203d d5d6 28bd c6ff 2d3d 92e4 e4bd
00000070: cac2 093d aa8c 17bc d30a cb3d 39e6 afbd
00000080: 06c0 abbc 9e16 223d 4b3b a0bd 780f afbd
00000090: 32c9 383d 8989 8a3c a865 34bd 333c e23c
000000a0: 5b3d cdbc d39d 8fbd cd37 a33c 9352 26bc
000000b0: 6963 74bd 0a21 9e3b 806a 74bd fe60 a4bd
000000c0: 646e 82bd 175c 33bd d59c 6bbc 4929 d1bc
000000d0: b642 3ebd 7adc 63bd 581d 583b 6356 993c
000000e0: 5175 9cbd 18b1 5f3c 8999 4f3d dc47 753c
000000f0: a6c1 8e39 5de2 f4bc f61d fc3c 9914 33bd
00000100: 3877 e9bd a28c 5e3c d4d3 6fbd 73f3 083d
00000110: 05f0 e3ba 6635 833c f94e b4bd 4408 cc3c
00000120: 8919 ea3b 3e1f 8bbd 4224 d73c f800 5abd
00000130: 6a89 643d e304 d73b ceba a43b 6603 aebc
00000140: 1e5e f0bc 8e3a 3b3d 4b36 e73c d5d2 46bd
00000150: a4c6 33bd e72b b8bd 9058 ee3c 570e 043c
00000160: 0a40 2bbc 15d9 60bd b7c0 423c 4c3b c6bd
00000170: d98b 093c 0016 b2bd 8376 68bd 2d3a cdba
00000180: b9bd 933d 41f6 1fbd 84ef 52bb 1197 353d
00000190: f415 a8bd 0b30 513d fb77 26bd 7ef3 973c
000001a0: 7755 4c3d 4eb1 24bd d6f1 27bd 2054 143d
000001b0: 4249 eb3c e6a8 f8bc 5d5c c1bc f7c8 6f3b
000001c0: 1b24 cdbc 4c7b 8e3d cd35 56bd c433 0dbd
000001d0: 8868 87bc 0b13 00bd f50a 5abd de1d bcbd
000001e0: 55e2 a9bd b6ce d8bd 3821 b63b e042 673c
000001f0: 2912 2dbd 7655 e7bc 82c4 a6bd 5b90 78bc
00000200: a4e3 6c3d d9c6 98bd 7457 973c 5e09 ab3b
00000210: 26ba 8dbd 210f 523d 1efd 263d 2420 f4ba
00000220: ce12 6cbd e1c4 613d c3cc 6a3c bec5 82bc
00000230: 6c90 02bd 4a98 3c3d a6f1 573d 799a 753b
00000240: 83a9 f738 6693 45bd 232b 31bd 7b3d c5bd
00000250: 7747 733b 76d5 92bd c358 b5bc 9b7a e7bc
00000260: 0aba 86bd d363 d5bd 3e3b e5bc b0d8 97bc
00000270: 318c 5f3c a2f3 6bbd 189c 073d b0ca 14bd
00000280: f964 b6bd 78c1 23bd 3b1a 59bb 9e91 79bd
00000290: 363f 8e3d 2d1b a0bc 27b8 1fbd 03eb 90bd
000002a0: c25f 63bd 1e90 c4bc 9eee e9bc b9c3 583d
000002b0: 8356 32bd e9a8 4d3d 5034 93bd ccc6 0a3d
000002c0: cc52 653d b91c bdbc efa0 f1bc 3600 7ebc
000002d0: f985 cd3c cda2 30bc 3c35 92ba 474d 86bc
000002e0: 375e c63c 4dbe 34bd d9bc 3a3d f27a 75bd
000002f0: 5006 1ebd 47c1 043d 4371 643d c33c 1b3d
00000300: 4e50 debd 04b1 7abd a49b b3bb eee9 26bd
00000310: db5c 75ba 68be 77bb d8cc 9bbd 6ef9 e13c
00000320: 9669 8cbd cf59 6ebd 423c 683b 6d32 32bd
00000330: c5d0 603c c351 c6bc 1882 eebd a39e 9abd
00000340: fa07 08bc d819 6dba 5567 4fbc 5074 7cbb
00000350: 4106 b6bd 2440 b0bb 23ca 7fba 2ed7 8a3d
00000360: c823 8abc 9aba f3bd 4ab1 43bd d88e 313c
00000370: 9c35 0bbd 024b 9c3c d91b 953b 8266 b0bc
00000380: 4e5b 2abd 83e8 88bd d519 f23a efe5 093d
00000390: 01dd 33bd aec2 86bd 5767 86bc 2529 7fbd
000003a0: 5b0c 9cbb 8474 5cbc c25d 4ebd bc7a 59bd
000003b0: fa05 44bd f2f1 5abd 2f2b 833a c376 8ebd
000003c0: 8ef9 29bc 30d7 39bc 368f eebc ecb2 9dbd
000003d0: 3baf 86bb 6363 41bd d4d6 223c 7565 13bd
000003e0: 89e0 c7bd 78fc 5fbd 2303 96bd 459e b13c
000003f0: 2dd7 00bb 9a00 57bc 91c8 7ebb ae8a 02bd
0.04294493 -0.10907429 0.025484301 -0.021734018 -0.08714913 0.0779962 0.009843643 -0.033002142
-0.09561134 -0.045926195 -0.0013364026 -0.0705612 -0.022500403 0.03190835 -0.05268561 -0.017358588
-0.014663409 -0.032526188 0.054347053 -0.037518058 0.006651768 -0.0670617 -0.07263212 -0.0069182855
0.03926236 -0.041220505 0.042480253 -0.11176409 0.03363303 -0.0092498455 0.09914174 -0.08588833
-0.020965587 0.03957235 -0.07823809 -0.08547872 0.04511375 0.016911285 -0.04404226 0.027616596
-0.02505367 -0.070125245 0.019924069 -0.010151523 -0.059665117 0.004825716 -0.05967188 -0.08026312
-0.063687116 -0.043788996 -0.014380653 -0.025532382 -0.04645034 -0.055630185 0.0032976475 0.01871795
-0.07639564 0.013653062 0.050683532 0.014970746 0.0002722863 -0.029893095 0.030776005 -0.043720815
-0.11399692 0.013583334 -0.058551624 0.033435296 -0.0017390257 0.016016673 -0.08804125 0.024906285
0.0071441573 -0.06793068 0.026262406 -0.05322358 0.05579511 0.006561862 0.0050271517 -0.021241855
-0.029341754 0.04571014 0.028224131 -0.04854091 -0.04389061 -0.08992749 0.029094964 0.0080600595
-0.01045228 -0.054894526 0.011886767 -0.09679279 0.008395159 -0.086956024 -0.056753647 -0.0015657597
0.07213921 -0.039053205 -0.003218622 0.04433352 -0.08207312 0.051071208 -0.040641766 0.018548723
0.049886193 -0.040208153 -0.041002117 0.03621304 0.028721455 -0.030353975 -0.023603613 0.003658829
-0.02504163 0.06957111 -0.052297402 -0.034473196 -0.016529337 -0.03126816 -0.053233106 -0.09185384
-0.082951225 -0.10586302 0.005558159 0.014115065 -0.042253647 -0.028238993 -0.0814295 -0.015171136
0.057834283 -0.07459802 0.018474318 0.0052196225 -0.069202706 0.05128396 0.040768735 -0.0018625301
-0.05763512 0.0551194 0.014331046 -0.015963431 -0.031876013 0.04604367 0.05272069 0.0037476106
0.00011809452 -0.048236273 -0.04325403 -0.09630867 0.0037121454 -0.07169621 -0.022137051 -0.028256705
-0.06578453 -0.104194306 -0.02798235 -0.018535942 0.013644264 -0.057605393 0.033107847 -0.03632611
-0.08905978 -0.039979428 -0.0033127207 -0.060929887 0.0694565 -0.019544208 -0.03899398 -0.07076075
-0.055511244 -0.023994502 -0.028556164 0.05292103 -0.043539535 0.050209913 -0.07187712 0.033880994
0.055987164 -0.023084985 -0.029495684 -0.01550298 0.025088297 -0.010781002 -0.0011154781 -0.01639427
0.024214847 -0.044126797 0.045590255 -0.059931703 -0.03858024 0.032410886 0.055772077 0.037899744
-0.10855161 -0.06120397 -0.0054812003 -0.040750436 -0.0009359845 -0.00378027 -0.0760743 0.027584758
-0.068560764 -0.058191117 0.0035436307 -0.04350512 0.01372165 -0.024208909 -0.11645907 -0.07549789
-0.008302683 -0.00090446835 -0.012658914 -0.0038521476 -0.088879116 -0.00537874 -0.0009757599 0.067793235
-0.016862765 -0.11900826 -0.047776498 0.010837279 -0.033986673 0.019078735 0.004550439 -0.021533255
-0.04159098 -0.06684973 0.0018470833 0.033666547 -0.043911938 -0.06580101 -0.016406698 -0.062295098
-0.004762215 -0.013455514 -0.050382383 -0.053095564 -0.047857262 -0.053453393 0.0010007377 -0.06956246
-0.01037444 -0.011342809 -0.029121023 -0.07700142 -0.0041102446 -0.047213923 0.009938914 -0.03598543
-0.097596236 -0.054684132 -0.07324817 0.021681914 -0.0019659505 -0.013122702 -0.003887687 -0.031870537

4.weight f4 [256, 256]
00000000: 59af 38bb 9e51 bebc 0b1e 6dbd c1f5 92bd
00000010: a832 40bd 3748 a5bd c974 b8bd 2484 4d3d
00000020: 784b 87bd 1612 b03d 749d b5bc 6627 56bd
00000030: 2c3d 6dbd e67a aa3c 2d90 86bc 4a1b d53b
00000040: 5df4 79bd eadc 043d cf96 363e 4155 adbc
00000050: b7f8 03bd c010 ec3b 3122 fd3c 541a d2ba
00000060: b0b2 06bc e54d 11bd 370d 163d 499f 47bd
00000070: 4e57 1fbc 30ed 87bd db20 39bc eca3 0bbd
00000080: 0d34 063d 2dbe 12bd ac2b 253d f8c9 df3c
00000090: dd65 30bc 6ce3 a9bc fd33 52bd 8d10 b7bd
000000a0: a724 0bbd 5fa0 cd3b b505 62bd df1a 1e3d
000000b0: 950d d33c 3480 f0bc 3351 c53c 36b5 68bc
000000c0: 0475 c33c 2677 053e a75b 16bd 7fac a7bd
000000d0: e219 5dbd 5482 c1bd 2b6b ee3c 992a c9bd
000000e0: 0607 0c3d 37df 4a3d ae95 e63d f557 3abc
000000f0: 4a64 3dbd 4cfa 633d 878d 2cbd b3da 8dbc
00000100: 1e24 c5bc 1e89 13bd 15fb 35bd 782f 153c
00000110: d0f0 85bc a796 503c ee2b 77bd 8cc8 113c
00000120: 36ca 5e3d 8c18 093d bf14 79bd 6237 52bd
00000130: 68bd 973c 1fe6 213d 7102 9abd 4009 953d
00000140: d1ca c5bb 1843 22bd 18c1 de3b 8c9a 0abd
00000150: 2529 333d 08e0 95bc 417c 8dbc 606e 0ebd
00000160: 96f2 bb3c 7488 23bd 55eb 33bb 5d42 7f3d
00000170: 40ca f33b 0a04 a0bd 2c53 853d 1c81 52bc
00000180: 397c acbc 8380 a0bd 61cb ae39 fa17 2abd
00000190: 14b4 183e 125d 35bc 5738 a53c e62d bc3d
000001a0: c943 fbbc 42e5 d23c 2792 c83c bcb2 a3bd
000001b0: fafb b4bd 2ff6 cbbd 826a 1cbc 40ab 1bbd
000001c0: cb49 8b3d 8c43 be3d dab7 113d 4795 d0bc
000001d0: 39a8 523d bc30 eb3d e148 8f39 95bc 553d
000001e0: 794d b43c f243 5ebd 02c4 82bc 4119 82bd
000001f0: 3444 b7bc db4c 313d 2d3a ea3b 3f87 febd
00000200: 90e5 79bc 88b9 333c 9fd1 ebbc 7bf3 aa3c
00000210: fd87 14bd 263e 21bc e337 df3b 645c 9b3d
00000220: cd8b 48bc 5214 5fbd 12be bf3b b09b 0e3e
00000230: 2c94 0e3e cc07 8bbc 8e41 2fbc ec7a 913c
00000240: ac48 2abc bb91 12bc 9519 793d 4de3 84bc
00000250: 3afa abbd 6cad 34bd a67d 213d c6eb 593c
00000260: 4adb 90bb 513b fa3c 94ec 5cbd fe5f 1d3d
00000270: 1c2f a9bc 425c a63c 312b 983c ef34 b4bd
00000280: 7871 8d3c 0559 83bc a434 9fbd d65a 3d3d
00000290: efd8 93bc 4bab e03c a06b f7bc f23a bf3d
000002a0: 97ee 04bc c860 a5bd 1bd4 6e3d 1780 85bd
000002b0: 945e 9e3d a41f 24bc b940 8d3d b820 bf3d
000002c0: 9e8f 173d 90b1 6d3c 900b a9bd 8cef 023d
000002d0: 85e7 b1bc 0dc0 d93d ecdc afbc 8ea1 073d
000002e0: f4b6 7e3d 5c8f 803b 8503 4d3d 2397 be3c
000002f0: 30a7 4bbd 7536 ad3c f8c3 833b f31e 2fbd
00000300: 6af1 b33c c1d9 fa3c 5041 823d 4eea 3b3d
00000310: 9040 b9bd c916 913d c038 913d 072e ff3c
00000320: 028b 45bd debc b63c b832 7bbc 80bf 5b3d
00000330: 7d78 31bd b84a 44bd 7801 1abd cc94 493c
00000340: 6598 c5bc 3d63 52bc a107 8bbd 230d febc
00000350: 5de3 a63d 6e84 2fbd dd85 0c3c d3b9 323c
00000360: f12b bf3d bdcb 36bb 62c5 0d3e 9047 873d
00000370: 088c 3b3c 2766 a6bb 11f6 c83d d8f0 3c3c
00000380: 281a 9f3d dbf8 32bc 5977 743b 83c5 97bd
00000390: a3bb 90bd db30 c83d 5cdb e3bc 9396 35bc
000003a0: fdcc 803c 75d6 ad3c 711f 2c3e 7e9f 813d
000003b0: 1dc5 713d c80e b9bc 87f0 1a3d d5e5 113d
000003c0: 46d3 683d 538d 95bd 6693 88bd b90c 96bd
000003d0: 2d89 42bc b8ac abbd 3ee2 95bd 6f06 8f3b
000003e0: 4ad7 9f3c 79ba 7e3d 9f33 c3bd 41dd 793d
000003f0: d12d 853d 9d63 2b3d 0b50 243d c1ca 81bd
-0.0028180687 -0.023232277 -0.05788998 -0.0717578 -0.04692331 -0.080704145 -0.0900665 0.050174847
-0.066061914 0.085971996 -0.022169806 -0.052283667 -0.057919666 0.020810556 -0.01642617 0.0065034973
-0.06102406 0.032437243 0.17830966 -0.021158816 -0.032219615 0.007204145 0.030900093 -0.0016029575
-0.008221313 -0.035474677 0.036633696 -0.04873589 -0.009725405 -0.06637037 -0.011299337 -0.034091875
0.032764483 -0.035825897 0.040324852 0.027317986 -0.010766474 -0.020738326 -0.05131911 -0.08938704
-0.0339705 0.0062752212 -0.055181224 0.038599845 0.025763312 -0.029358007 0.02408657 -0.01420336
0.023859508 0.13033733 -0.0367085 -0.08187198 -0.053979762 -0.09448686 0.029103836 -0.09822578
0.034186386 0.04952928 0.11259018 -0.01137351 -0.04623822 0.055658624 -0.04212716 -0.017316198
-0.024065074 -0.036019437 -0.044428904 0.009105556 -0.01635018 0.012731231 -0.06034463 0.008897912
0.054392062 0.033470675 -0.0608108 -0.05132235 0.018522933 0.0395261 -0.07519997 0.07277155
-0.0060361405 -0.039614767 0.006797921 -0.033838794 0.04374041 -0.018295303 -0.017271163 -0.03477323
0.022942822 -0.039925054 -0.0027453501 0.06231915 0.0074398816 -0.078132704 0.065100044 -0.012848165
-0.021055328 -0.07837012 0.00033339395 -0.041526772 0.14912444 -0.011069553 0.020168466 0.09188442
-0.03067197 0.025744084 0.024483753 -0.07993075 -0.08837123 -0.09959065 -0.009546878 -0.038005114
0.06801184 0.09290227 0.035575725 -0.025461806 0.05142996 0.11483905 0.00027329384 0.0521818
0.022009598 -0.054264016 -0.015962604 -0.06352473 -0.022371389 0.043286186 0.0071480484 -0.1242814
-0.015252486 0.010969527 -0.028786479 0.020868054 -0.0362625 -0.0098414775 0.006812082 0.075859815
-0.012240362 -0.05446274 0.0058515156 0.13926578 0.1392371 -0.016971491 -0.010696782 0.017758809
-0.010393303 -0.008945878 0.060815413 -0.016221667 -0.08397336 -0.0441107 0.03942647 0.013300842
-0.0044206725 0.030545862 -0.053936556 0.038421623 -0.020652346 0.020307664 0.018575283 -0.08799159
0.01726602 -0.016033659 -0.07773712 0.046229206 -0.018047778 0.027425429 -0.030202687 0.09337415
-0.008113525 -0.080751 0.05830775 -0.06518572 0.07732883 -0.010017309 0.068971105 0.093324125
0.0370022 0.014507666 -0.082541585 0.03196673 -0.021716842 0.10632334 -0.021467648 0.033113055
0.062186196 0.00392334 0.050052185 0.023265427 -0.04971999 0.021144131 0.004021164 -0.042754125
0.021965701 0.030621411 0.063601136 0.045877747 -0.090455174 0.07084424 0.07090902 0.031149877
-0.04822827 0.022306856 -0.0153319165 0.053649426 -0.043327797 -0.04792282 -0.037599057 0.012303542
-0.024120519 -0.012841043 -0.067885645 -0.031012123 0.08148835 -0.042850904 0.008576837 0.010908562
0.09334553 -0.0027892434 0.13844827 0.06605446 0.01144696 -0.0050780955 0.098125584 0.011532031
0.07768661 -0.01092359 0.0037302582 -0.07410719 -0.07067039 0.097749434 -0.02781456 -0.011083263
0.015722746 0.021220425 0.16808869 0.06329249 0.059025872 -0.022590056 0.03782704 0.035619576
0.05684211 -0.07302346 -0.06668739 -0.073266454 -0.011873526 -0.08382553 -0.07318543 0.0043647806
0.019511838 0.062189553 -0.0953133 0.06100202 0.065028794 0.041843046 0.040115397 -0.063375

4.bias f4 [256]
00000000: 1875 27bd 892a 9e3d 4fbe b1bd 50ec 4fbb
00000010: 9027 5fbd ae9a 18be 27b4 5cbb f8b5 643d
00000020: cee0 233a 8f31 22bd ce77 9fbc 3913 16be
00000030: db1d 86bb 68f6 53bd 1707 bbbd a109 9e3b
00000040: 12a2 e0bd 2500 923c d366 3bbd ba14 bcbb
00000050: 3e06 5dbd 0197 23bc 4c89 ccbc 24e2 0f3c
00000060: b7eb 67bc 4268 06bd 904a e13c e34e 86bd
00000070: b62b 05be 1d5d 22bd 508e bebd 5334 0fbe
00000080: cb12 7ebd b5c5 89bb fe46 bebd f01f f93c
00000090: 2be9 47bc e7a6 e03b 0d41 21bd 9c77 07bd
000000a0: f6b4 1abd fbd6 eebc d838 50bd 05f0 65bd
000000b0: 646a 35bc 4cb9 f0bd 9476 443c 26be 53bd
000000c0: fbd8 9bbc 1877 73bd 9c00 463d 8463 ee3c
000000d0: 38f7 a3bd 25b5 983d d22b 6dbb 2162 d73c
000000e0: eef0 2439 fd88 83bd 46b3 21bc 2c7c b2bd
000000f0: fffe f9bd 9525 76bd 9b0d 2ebd caec bdbd
00000100: 6758 9dbd 5459 34bd cf94 5b3d 788d b3bc
00000110: 4605 a13c 1546 e93d e239 c6ba 88d2 ffbd
00000120: 1824 97bd 453a e1bd 00ad 9bbd 7618 d0ba
00000130: 2d8d 12bd 6237 9dbc cd19 c83d f3b0 863c
00000140: 87d5 703d a322 e9bb be05 743c 13d7 5c3b
00000150: 0c34 60bd f8bc 5c3d 7d45 79bd f00a 03be
00000160: d9c2 abbd 38c6 f5bd 6f07 0fbe ebf1 b2bd
00000170: 7acc 94bd e3ba bc3d 28f7 b8bc ca4f 84bd
00000180: c4bc 8dbc e7d1 d3bc 5705 af3d cb47 99bd
00000190: db8f d8bd 837f 5e3c 4489 9ebc 171a e93c
000001a0: 3ee5 843d a3be 71ba 8e08 f8bd 2c8c 503d
000001b0: 36f1 f53d 7755 14bd 0252 3cbd df12 00bd
000001c0: 1955 853b 8b26 f63c 3a33 d9bd 5da1 dcbd
000001d0: d342 99bd 471e cbbd c8d4 f83c b030 46bd
000001e0: 43e1 acbd a965 873b 964c 2dbc 0bbe 933d
000001f0: f462 aebd b4f6 883d d100 f33b fcd8 0ebe
00000200: 3f48 78bd 9422 f1bd 4f11 383d 855b 12be
00000210: dbd6 0c3d 21c4 d1bc 6952 013d 51d7 60bd
00000220: 5a84 8a3d 1f83 863d 4038 b1bd edcf fcbc
00000230: 8142 16bb b13c ae3d 76ff 8d3b 3c04 9bbd
00000240: cf6f 8abd 8724 1f3c 7966 febd f71e 103c
00000250: cf22 f13c f0d6 08be c136 11bd f6cf 903d
00000260: 2c0f 42bd 070b b4bd 3d8d 103b c363 d5bd
00000270: fad2 5fbc 8228 b0bd 8354 833d 786d 19bc
00000280: 3f45 373d 5fc2 94bc ee46 d7bd d172 7fbc
00000290: 9325 91bd 30da 8f3c 140e 4a3d e82b d4bc
000002a0: 603b c6bc c024 07be 257b 05bd 8c5c 56bd
000002b0: 62fb 63bd bb89 82bd 6091 cebd cc8a b73c
000002c0: 3b21 6bbb 4b29 b4bd c935 733d 99c1 a93c
000002d0: e6a3 39bb 16a6 e9bd 81cd f5bd 4fac 54bd
000002e0: 6c49 cabd bf1c ea3c 2509 1a3d 5254 e13c
000002f0: a60f b0bd 28d0 97bd 2e35 13bd 32e1 4bbd
00000300: 917c b13c 57da 0d3d bd4a 92bd efef 41bd
00000310: a431 6cbd 6332 fa3c e932 6dbd 1c6d 28bd
00000320: eec0 713b e926 40bd 2fcd 8b3d e3dd a9bd
00000330: 5fef 83bd 4b15 cdbd 46c2 8cbd 9bfd c4bd
00000340: fda2 d03b 27b5 bfbd 28ea 253c 29ea 98bd
00000350: 59d6 90bb 1da4 78bd 2563 273d 1695 43be
00000360: f23f 86bd 48c6 81bd d711 6e3c 8394 68bc
00000370: c28d 193d aabb c43c a04b 443b af0e a43d
00000380: 4103 2ebc 8a56 a33b 54ec 26be a322 04bd
00000390: 932b 8c3d 937c c8bc 17ee c0bd 0a50 883c
000003a0: ab6c 70bd 2730 08bc 4a8a d6bc 7426 ecbc
000003b0: 9d06 063e d1b2 adbd a525 c0bd 5fb5 a1bc
000003c0: 93f4 0dbd c53d c738 f454 8cbd b8d2 f1bc
000003d0: a5b9 78bd 32e3 aa3d 5394 a7bd fbda ccbd
000003e0: 22c6 1ebd 2f8b acbd 02a4 123c 76b0 da3c
000003f0: 9180 c8bc e0ae 17bd 4702 573c a387 2dbd
-0.040883154 0.07722957 -0.086788766 -0.0031726547 -0.05448109 -0.14902756 -0.0033676715 0.0558376
0.0006251455 -0.039598044 -0.019466307 -0.1465577 -0.0040929145 -0.051748663 -0.09132212 0.004822925
-0.109684125 0.017822335 -0.045752358 -0.0057397755 -0.05396103 -0.009984733 -0.024967812 0.0087819435
-0.01415532 -0.03281427 0.027501374 -0.06558015 -0.13004956 -0.03963958 -0.09304488 -0.13984804
-0.06202964 -0.0042044767 -0.092908844 0.030410737 -0.012201588 0.006855834 -0.039368678 -0.033073053
-0.037770234 -0.029155245 -0.05083546 -0.056137104 -0.011072729 -0.117540926 0.011991162 -0.05169501
-0.019024363 -0.05943975 0.048340425 0.029100187 -0.080061376 0.074564256 -0.003618945 0.026291909
0.00015730012 -0.06422613 -0.009869402 -0.0871509 -0.1220684 -0.060094435 -0.042493444 -0.092736796
-0.07682877 -0.044030502 0.05360871 -0.021918043 0.019655835 0.1139032 -0.0015123452 -0.124913275
-0.07379931 -0.10997442 -0.076013565 -0.001587643 -0.035779167 -0.019191448 0.09770546 0.016441798
0.058797386 -0.0071147247 0.014893947 0.003369753 -0.054737136 0.053891152 -0.060857285 -0.12797141
-0.083867736 -0.12000698 -0.1396768 -0.087375484 -0.07265563 0.09215333 -0.02257879 -0.06460531
-0.017301925 -0.025856925 0.0854594 -0.074843965 -0.10574313 0.013580206 -0.019352563 0.028454823
0.06489037 -0.00092218275 -0.12111007 0.05091493 0.12008898 -0.036214318 -0.045976646 -0.031267997
0.0040689823 0.030047676 -0.10605474 -0.10772965 -0.07483449 -0.09917884 0.0303749 -0.048386276
-0.08441403 0.004131992 -0.010577342 0.07213982 -0.085149676 0.0668768 0.007415869 -0.1394996
-0.060615774 -0.117741734 0.04493838 -0.14292724 0.03438459 -0.025606217 0.031572733 -0.05489284
0.06763525 0.06567978 -0.08653307 -0.030860865 -0.0022927823 0.0850767 0.004333432 -0.07569167
-0.06759607 0.009713299 -0.12421889 0.008796445 0.029435543 -0.13363242 -0.035452608 0.070709154
-0.04737775 -0.08791166 0.002205684 -0.10419419 -0.013661141 -0.08601476 0.06412604 -0.009364478
0.044743773 -0.01815909 -0.10511576 -0.015591339 -0.07087245 0.017560095 0.049329832 -0.025899842
-0.024198234 -0.13197613 -0.032588143 -0.052334353 -0.05565966 -0.06373926 -0.10086322 0.02240505
-0.0035877961 -0.087969385 0.059377465 0.020722197 -0.002832645 -0.114086315 -0.120020874 -0.05192214
-0.09877285 0.02857816 0.037606377 0.027506027 -0.08596735 -0.074127495 -0.035939388 -0.04977531
0.021665843 0.034632053 -0.071431614 -0.04734796 -0.05766453 0.030541604 -0.05790988 -0.04111968
0.0036888677 -0.046912108 0.06826245 -0.08294275 -0.06442141 -0.10013827 -0.06872992 -0.09618684
0.006367086 -0.09360724 0.010126628 -0.074665375 -0.0044200835 -0.060703386 0.040866036 -0.1909984
-0.06555165 -0.06336647 0.014530621 -0.014195564 0.037488706 0.024015266 0.0029952303 0.08010613
-0.010620893 0.0049846815 -0.1630109 -0.032259595 0.068442486 -0.024473464 -0.09420412 0.016639728
-0.058697384 -0.008312262 -0.026188988 -0.02882693 0.1308846 -0.08481372 -0.0938218 -0.019739805
-0.034657072 9.500565e-05 -0.06852141 -0.029519424 -0.06072392 0.08344115 -0.081825875 -0.10002705
-0.038763173 -0.08424985 0.008950235 0.026695471 -0.024475368 -0.03703201 0.013123102 -0.04236568

6.weight f4 [1, 256]
00000000: 603e 24bc 35d9 fb3c cbb3 663b 3899 993d
00000010: fc98 1bbd c65c 49bb 56ec 7dbd 30ff 8d3c
00000020: 78a9 5e3d 068f e2bb f3a7 3cbd e675 11bd
00000030: 2695 b2bd 5e1c 67bc 1198 81bd 958e 8c3d
00000040: e32d 7f3b 2388 c03c 2321 87bd 131b 953c
00000050: c014 713c c160 0cbd ac53 81bc bb37 0cbd
00000060: deaa 7f3c 5122 9abc f50a f7bc 3553 e5bc
00000070: 7b74 ebbd 0834 debc f064 9bba 56ef 55bc
00000080: 5f37 723d cf49 563c b553 db3c 9243 9fbb
00000090: d70d de3c f5c1 793d ce99 89bd 77ef 46bc
000000a0: 4be7 e93b 9f51 16bd 0971 c4bc 889d 393c
000000b0: e4cc 0f3d e73c 193b c0f2 e6bc 487c 72bd
000000c0: 2f84 943d 2572 17bd db37 e1bc 5bc4 2c3d
000000d0: ed49 9cbc 1754 3e3d f647 bfbd 874e c33d
000000e0: 99a7 82bd 869c b23d b009 b53b 8feb 19bc
000000f0: 9b51 83bd 5b11 82bd e10d 18bc fbcd 853a
00000100: 7523 5ebd e3bc 2ebd 2c18 8e3c f202 40bb
00000110: a0c2 bbbb d84b 7f3d 1f08 bb3b c77b e9bc
00000120: 7270 0ebd 0cef 12bd 7ce1 babb 2055 653c
00000130: 6d76 0cbb 5924 1a3d 9d0a 693b 1568 4c3d
00000140: cf63 0c3d 484e 913a ebab e43c 4d17 943b
00000150: 87e0 b3bc cb03 fbbd a85e 803d 85a6 4cbd
00000160: 0aad 10bd d3c7 98bc 4302 2fbd 2092 20bc
00000170: e8e2 86bc 9322 923d 3ad1 a03c 25e0 f8bc
00000180: d0fa 293c ffde 6dbd 3e24 3d3d 19f2 03bc
00000190: 1045 85bb 4f83 03bd 4d5a 1bbd a6d5 b0bd
000001a0: c1d7 933d e84a 8e3b 0e45 6ebc 2d33 8b3c
000001b0: 9b44 083d 482b 853b a85d 893c 39ae 29bd
000001c0: 36ec 21bd bbd6 f63c 279f b33b bbf1 acbb
000001d0: 9b01 31bd 6528 5abb 6d00 23bd e975 24bd
000001e0: 5cda 4ebd 282a 9abd f4bf 303d 4cad ea3b
000001f0: 53c1 ca3a 3a1e e1bd 0211 983d 2256 87b9
00000200: dd80 363d 45e6 1b3b dcea 183d a642 3ebd
00000210: 5a02 6b3b c2a9 14be ed53 fa3c 6cdb 25bd
00000220: 23e4 08bd e795 0e3c 4edf bebc e626 2dbd
00000230: 45df 2dbb 6a01 223c a234 823d d84d 5dbb
00000240: 7aa0 b4bb f1ab babc e776 b8b9 1d6f 613c
00000250: 0ef7 663d 3e44 e3bc 3c14 003c feea 483d
00000260: 94c5 c13d edeb 6e3a 7d6d 893b b058 533a
00000270: e348 b23c 0ad6 28bd 313d 803d 2af4 923c
00000280: 040a 9abc fcd0 42bb 8ba2 27bc 4bff 0ebc
00000290: 7c3e 39bd faba 04bd 4214 ef3c d584 7ebd
000002a0: d1f9 073d 6876 08bc 7046 4a3c b85e 2ebb
000002b0: 2a3f 84bd 0d9a 5b3d e5f0 4dbc 905a 893d
000002c0: 2b88 2cbb 2fe0 38bd 47fa 853c c27a 1c3d
000002d0: 1a37 d73c 59f5 c3bc 3aec 2bbc 169f 8c3a
000002e0: a092 583d 933b 4bbd 7839 1bbd f58f 2e3d
000002f0: 4eaf 62bd 5ae1 2fbd e1d3 78bb 2c0e b9bc
00000300: 5616 c73c 554d acbd e415 a4bb 5ea2 983c
00000310: f917 64bd 9cb0 863d 5ccc cbbd 4c66 5cbc
00000320: 4bf4 03bd 1266 55bd a638 a1bd ee17 8bbc
00000330: 65f0 9ebd f36b a6bd 1e59 9abb 7d9d 203b
00000340: e13f 9dbd f10c 5abb 6c72 6e3c d10b 40bd
00000350: c4b0 1b3c c5e3 443d 2fa1 a13c 24ff 6db8
00000360: a350 0c3d 5ce5 c7bd 7b56 38bd b108 3bbd
00000370: 1266 9d3d fd1e 073e 8502 523b 259c 273c
00000380: c14c b4bc 0d03 22bb 513f c83b 005e cfbd
00000390: 2d89 733d c373 fcbd 95ed d1bd d300 a13b
000003a0: 614b bebd 7450 17bd 6506 debd 0de7 833d
000003b0: 21ab de3d 8399 8fbd ad08 45bd 733b 22bd
000003c0: e79e cbbc abea 323c f221 b6ba 7d49 c43c
000003d0: c5c9 67bc 24ba 3f3d ece1 8cbc 1032 233b
000003e0: f895 a83c c999 de3c e1bf 76bd 443a 513d
000003f0: 32ed 05bd ba17 9abb 48fd 8dbb facd 353d
-0.010024637 0.03074322 0.003520238 0.07499927 -0.037987694 -0.0030725463 -0.061992966 0.017333597
0.054360837 -0.0069140224 -0.046058606 -0.035512827 -0.08719854 -0.014105884 -0.063278325 0.06863133
0.0038937263 0.023502415 -0.06598117 0.018201387 0.01471442 -0.03427196 -0.015786968 -0.034232836
0.015604703 -0.018815191 -0.030156592 -0.027993778 -0.11496826 -0.02712442 -0.0011855643 -0.01305755
0.059134837 0.013079121 0.026773313 -0.00486035 0.027106209 0.060975987 -0.06718789 -0.012142054
0.007138168 -0.036698934 -0.02397968 0.011329062 0.03510751 0.0023382248 -0.028191924 -0.059200555
0.072517745 -0.03697409 -0.027492454 0.042179447 -0.01907822 0.046466913 -0.09339897 0.09536462
-0.06379623 0.08721261 0.0055248365 -0.00939454 -0.064120494 -0.063509665 -0.009280653 0.0010208482
-0.054233033 -0.042660605 0.01734551 -0.002929863 -0.005729988 0.06232819 0.005707755 -0.028501404
-0.034775205 -0.035872504 -0.0057031494 0.013997346 -0.0021432892 0.03763232 0.0035559305 0.049903948
0.034274872 0.0011085952 0.027914008 0.004519379 -0.021957649 -0.12256583 0.06268054 -0.049963493
-0.035321273 -0.018649971 -0.042726766 -0.009800464 -0.01646562 0.07135501 0.019631017 -0.030380318
0.01037474 -0.058073994 0.04617714 -0.008053326 -0.004067071 -0.032107648 -0.037927914 -0.086345
0.07218886 0.0043424256 -0.014542831 0.016992176 0.033268552 0.0040639974 0.016768292 -0.041425917
-0.03953191 0.030131688 0.005481619 -0.00527784 -0.04321442 -0.0033288237 -0.039795328 -0.04015151
-0.050501212 -0.07527572 0.04315181 0.007161772 0.0015468992 -0.109920934 0.07425119 -0.0002581338
0.044556487 0.0023788374 0.037333354 -0.04645028 0.0035859556 -0.14517882 0.030557597 -0.04049246
-0.033420693 0.008702732 -0.02329984 -0.042273425 -0.0026530784 0.009888032 0.06357695 -0.0033768322
-0.0055122944 -0.022787066 -0.00035183804 0.013759402 0.056387953 -0.027742501 0.007817324 0.04905223
0.09461513 0.0009114135 0.00419396 0.00080622267 0.02176327 -0.04121975 0.06261671 0.017938692
-0.018803604 -0.0029726615 -0.010231624 -0.008727859 -0.045225605 -0.032404877 0.029184464 -0.062138397
0.033197228 -0.0083290115 0.012345895 -0.002660675 -0.0645736 0.05361371 -0.012569641 0.067067266
-0.002632628 -0.045135673 0.016354693 0.03820301 0.026271392 -0.023920702 -0.0104933325 0.0010728564
0.052874207 -0.04961736 -0.037896603 0.042617757 -0.055342965 -0.04293952 -0.0037968087 -0.022589765
0.024302643 -0.084131874 -0.0050074924 0.01863211 -0.055686925 0.06576654 -0.09951088 -0.013452124
-0.032215398 -0.052099295 -0.07872133 -0.016979184 -0.07760695 -0.081260584 -0.0047103306 0.0024507933
-0.076781996 -0.0033271874 0.0145536475 -0.04688627 0.009502593 0.04806878 0.019730179 -5.674282e-05
0.03425659 -0.09760544 -0.04500435 -0.045662586 0.07685484 0.13195415 0.0032044959 0.010230099
-0.022009255 -0.0024721057 0.0061110635 -0.10125351 0.059456993 -0.12326767 -0.10250393 0.0049134283
-0.09291721 -0.03694196 -0.108410634 0.06440554 0.10872484 -0.07011702 -0.048103977 -0.039607476
-0.024856044 0.010920207 -0.0013895615 0.023960823 -0.014147227 0.046808377 -0.017197572 0.0024901666
0.020579323 0.02717294 -0.060241584 0.051080957 -0.03269691 -0.0047025355 -0.004333172 0.044385888
