Navigation/exp/CrowdSim-v0/H1024_L2_lr0.0001/teacher_b-1_g1_m0_s0_e0/label_smooth_0.0/schedule_0/ActiveLearning/reward_model_4000_2.pt (torch, 567631 bytes, 7 tensors)

0.weight f4 [256, 36]
0.13986003 0.11122352 0.07600254 -0.10173788 -0.035765342 -0.16264233 0.10486855 0.0494649
-0.008250225 0.07237819 0.05466121 0.035611723 -0.17007467 0.15723836 0.04077195 0.051488142
-0.16402835 -0.15456536 -0.07525666 -0.0406065 0.10854957 -0.015572917 -0.06334381 -0.06888458
-0.037797302 0.059783902 -0.017355291 0.1996816 0.21098682 -0.1601415 -0.016574735 0.017085016
-0.13650383 0.07702117 0.14875607 -0.059217505 0.023307456 -0.09712232 0.1508864 -0.17921428
-0.20525698 0.020892404 0.060779393 -0.18290618 0.113224424 -0.21750003 -0.011353039 0.01407886
0.08139054 -0.1035434 0.029292688 0.05348247 -0.13063477 0.09171619 0.03771892 -0.17722964
-0.061551955 0.05440682 0.08186579 -0.07011963 -0.16893348 0.060653023 0.087049544 0.14596584
0.110363744 -0.018816682 -0.051352333 -0.033161104 0.011040296 -0.052197423 -0.08635697 -0.082577
-0.11899458 0.10006269 0.057272386 0.018741654 -0.13322188 0.03880076 -0.114732385 -0.09137797
-0.018757723 0.09076706 0.031197343 0.038641416 -0.12519507 0.08013768 0.14147216 0.11935945
-0.08871607 -0.05279242 0.013919534 -0.16173664 -0.11723248 -0.14496072 0.023280352 -0.092008166
0.045682505 -0.051383756 -0.09296267 -0.21300174 -0.29779434 -0.053566907 0.0159782 -0.16136013
-0.058917496 0.028760115 -0.017885638 -0.32791698 0.009523088 0.015774677 -0.08027418 0.24239989
-0.040636845 -0.09696726 0.044073977 0.12573105 -0.047003474 -0.13423353 -0.12273843 -0.12932856
-0.15903579 -0.06391839 -0.1694483 0.08120878 0.07607322 -0.017380945 0.0038190791 -0.1824758
0.12317208 0.075013585 -0.1326697 0.025152069 -0.07171766 -0.1852239 -0.10561423 0.17380218
-0.29361412 0.1375893 -0.006942713 0.116303146 0.019195529 -0.1370496 0.18296346 0.16012475
0.13914372 0.13860114 0.0093913525 -0.06799751 -0.07542453 -0.058547333 -0.07119528 -0.16567819
0.12330272 0.15103492 0.16745885 0.08668335 -0.12604113 0.012776387 0.0047592972 0.11191166
-0.06835987 -0.022575768 -0.036239583 -0.017083181 -0.048541017 -0.13245386 0.15069032 0.022722462
-0.08769984 0.006497126 0.15463708 -0.036420997 0.19313672 0.039737333 0.02787827 0.11692735
-0.03840889 -0.06633802 -0.03674967 0.3020987 0.09809151 -0.087708026 0.05861168 0.093112275
-0.0009154589 0.010568169 0.12973374 0.08429006 -0.02598932 -0.14654209 0.06407414 -0.0277961
-0.021325778 0.13218749 -0.13026766 0.075022705 -0.04301708 -0.07153069 -0.2509151 0.1589992
0.10735367 0.07414548 -0.16996673 -0.12479328 -0.059250988 -0.025758522 0.10828957 -0.05495073
0.1855903 0.094027616 -0.0109406235 -0.16320992 0.09536747 0.14647268 -0.13543047 -0.11734687
0.04105273 -0.02914865 -0.046794537 -0.05986774 0.106879234 -0.08618727 0.1398861 -0.025165124
-0.062471908 0.101912476 -0.13780423 0.07953843 -0.10017704 0.067741446 0.13074473 -0.21346773
-0.17893659 0.1113724 0.038698822 -0.01019627 0.08707578 0.09755404 0.15947618 0.11720713
0.08772248 0.1401879 0.00075307407 -0.066259585 -0.14545816 0.004001361 0.01614982 0.022666495
-0.08751961 0.026957734 -0.09389634 -0.20139153 0.039459765 -0.14836535 0.17372859 0.098839305
00000000: 7837 0f3e 28c9 e33d 38a7 9b3d f35b d0bd
00000010: ae7e 12bd b68b 26be 53c5 d63d b59b 4a3d
00000020: f42b 07bc 043b 943d 6fe4 5f3d 99dd 113d
00000030: 0e28 2ebe 1803 213e 7d00 273d 3be5 523d
00000040: 0cf7 27be 6246 1ebe 2a20 9abd 0053 26bd
00000050: 3d4f de3d 8c25 7fbc 66ba 81bd 5c13 8dbd
00000060: 58d1 1abd f7df 743d af2c 8ebc 5579 4c3e
00000070: ee0c 583e 22fc 23be bdc7 87bc e0f5 8b3c
00000080: a9c7 0bbe 46bd 9d3d 8353 183e 0e8e 72bd
00000090: 47ef be3c 11e8 c6bd f781 1a3e f383 37be
000000a0: e32e 52be 8c26 ab3c d0f3 783d c24b 3bbe
000000b0: 35e2 e73d 54b8 5ebe 1902 3abc 05ab 663c
000000c0: 15b0 a63d 900e d4bd 38f7 ef3c 6f10 5b3d
000000d0: 1fc5 05be b3d5 bb3d 277f 1a3d b07b 35be
000000e0: e71d 7cbd b0d9 5e3d 40a9 a73d e19a 8fbd
000000f0: e6fc 2cbe 4e6f 783d 0847 b23d 1278 153e
00000100: 6306 e23d 7125 9abc d356 52bd f0d3 07bd
00000110: 5ce2 343c f7cc 55bd ecdb b0bd 211e a9bd
00000120: 6eb3 f3bd abed cc3d 7396 6a3d 1988 993c
00000130: 516b 08be 8ced 1e3d d0f8 eabd 6024 bbbd
00000140: cca9 99bc 15e4 b93d 9291 ff3c 7646 1e3d
00000150: 2333 00be 391f a43d 14de 103e ba72 f43d
00000160: c5b0 b5bd dd3c 58bd c20e 643c 4a9e 25be
00000170: 9517 f0bd 9570 14be 70b6 be3c c76e bcbd
00000180: 941d 3b3d c677 52bd 3663 bebd 211d 5abe
00000190: 8078 98be f968 5bbd b7e4 823c 973b 25be
000001a0: 7953 71bd 559a eb3c e784 92bc bce4 a7be
000001b0: ba06 1c3c e539 813c ca66 a4bd ad37 783e
000001c0: d272 26bd c596 c6bd ea86 343d a4bf 003e
000001d0: b786 40bd 8474 09be 495e fbbd b56e 04be
000001e0: 47da 22be a5e7 82bd db83 2dbe ca50 a63d
000001f0: 47cc 9b3d 7c62 8ebc 8449 7a3b f0da 3abe
00000200: a541 fc3d b9a0 993d 91da 07be b60b ce3c
00000210: b5e0 92bd 56ab 3dbe 464c d8bd 33f9 313e
00000220: 9754 96be 36e4 0c3e b37f e3bb 5830 ee3d
00000230: f13f 9d3c bb56 0cbe c65a 3b3e bef7 233e
00000240: b17b 0e3e 75ed 0d3e 30de 193c 4742 8bbd
00000250: 2d78 9abd 54cf 6fbd d5ce 91bd 8ba7 29be
00000260: 2386 fc3d e6a8 1a3e 557a 2b3e 0a87 b13d
00000270: ed10 01be 0d54 513c e1f3 9b3b f131 e53d
00000280: 4200 8cbd d1f0 b8bc f56f 14bd 07f2 8bbc
00000290: f2d2 46bd fca1 07be 904e 1a3e 7524 ba3c
000002a0: f99b b3bd d8e5 d43b 2f59 1e3e 2f2e 15bd
000002b0: a2c5 453e 9dc3 223d f860 e43c 9b77 ef3d
000002c0: a452 1dbd 3adc 87bd d286 16bd aeac 9a3e
000002d0: 34e4 c83d 44a0 b3bd cd12 703d a6b1 be3d
000002e0: 68fb 6fba 1d26 2d3c ecd8 043e 44a0 ac3d
000002f0: 8ee7 d4bc 210f 16be 4d39 833d a6b4 e3bc
00000300: 66b3 aebc 285c 073e e364 05be 81a5 993d
00000310: ad32 30bd af7e 92bd f277 80be b0d0 223e
00000320: 3edc db3d 96d9 973d c20b 2ebe 9f93 ffbd
00000330: 2ab1 72bd 8903 d3bc ecc6 dd3d 0414 61bd
00000340: 620b 3e3e 8d91 c03d 4d40 33bc 8020 27be
00000350: 0550 c33d effc 153e 49ae 0abe 8e53 f0bd
00000360: e826 283d 26c9 eebc a1ab 3fbd e037 75bd
00000370: 80e3 da3d f482 b0bd 4d3e 0f3e 1727 cebc
00000380: 8be2 7fbd 7db7 d03d 8d1c 0dbe 0be5 a23d
00000390: 9f29 cdbd 07bc 8a3d f2e1 053e 4997 5abe
000003a0: 273b 37be 3617 e43d a882 1e3d 420e 27bc
000003b0: c954 b23d 6aca c73d b94d 233e 4b0a f03d
000003c0: d8a7 b33d 6b8d 0f3e f269 453a 1bb3 87bd
000003d0: fcf2 14be d91d 833b a14c 843c 16af b93c
000003e0: 7b3d b3bd 77d6 dc3c b94c c0bd 9539 4ebe
000003f0: 90a0 213d 16ed 17be e8e5 313e 436c ca3d

0.bias f4 [256]
-0.14627907 -0.22322634 -0.057294663 -0.0244103 -0.11334978 0.17232993 -0.06322179 -0.11879465
0.05487626 -0.1318853 -0.014285939 -0.022765381 0.10808666 -0.03252261 0.09158074 -0.18043897
-0.093802206 -0.14476033 -0.1796546 0.05864838 0.028865695 -0.062134597 0.015887551 -0.03498502
-0.06133638 0.08459045 -0.119523615 -0.030890044 -0.0983734 0.10334078 0.037752554 0.13615431
0.12976283 -0.091826305 -0.14999111 0.010114289 -0.15325812 0.18124178 -0.092450984 0.1134289
0.039448176 0.096379146 -0.15386902 0.06668948 -0.00838522 0.10753195 -0.10475189 -0.08010948
0.0881575 0.13195615 0.017671123 -0.16472124 -0.009375232 -0.13882151 -0.10170172 0.042119052
0.041283306 -0.119772926 0.049059313 -0.17700711 0.09215875 0.13617784 -0.22148235 -0.10301398
-0.20741284 0.029757403 0.09672793 -0.19506407 -0.14360285 -0.006312506 -0.009030315 0.02448283
0.10853934 -0.026059514 -0.025389241 -0.14830752 0.045993004 -0.17403702 -0.094633035 0.0002118669
0.083993934 -0.12721457 0.08004109 -0.07778568 -0.06114072 -0.0855932 0.13265395 -0.19316828
-0.20687087 -0.11614939 -0.18029207 -0.19924533 0.1031975 0.09706713 -0.008879782 -0.054600455
-0.062340457 0.12546155 0.12921767 -0.022611687 -0.16471402 0.10472979 0.024355827 -0.09866474
-0.07574153 -0.044611692 0.083767615 -0.104772136 -0.004194188 0.061838347 0.09455914 -0.14259164
0.050017294 -0.1449675 0.018119229 -0.009120968 0.07064765 0.07212597 -0.13689673 0.18342541
-0.01811234 0.04276378 0.11823005 -0.001818239 -0.08179813 0.16972454 0.058196284 -0.045718927
-0.13720094 -0.045604963 -0.14307433 0.09500419 0.158878 -0.17397133 0.07021413 -0.16152868
-0.009446574 0.050767984 0.09966246 -0.05986739 0.09802712 -0.096974954 0.002638418 0.10026675
-0.079575524 0.09244368 -0.034793135 0.0688406 0.13630684 0.05440646 0.028155865 -0.17170657
-0.074657746 -0.12175576 -0.13692619 0.08617198 0.0636493 -0.14927374 0.123404875 -0.14992996
-0.022548584 0.011262558 0.10148038 0.025323117 -0.14784703 -0.11724381 -0.20493533 -0.10704599
-0.13889979 -0.11062832 0.058947198 0.027788604 -0.11534655 -0.15666366 0.044609446 0.13285537
-0.090052575 -0.00470486 0.05145234 0.11387655 0.0044664624 -0.113297306 0.050197426 -0.036908466
0.058508903 -0.16484198 0.0035823379 -0.12504864 -0.0070683877 -0.16698872 -0.14264022 0.11368548
-0.13133694 0.018543838 -0.047451686 0.096414104 -0.020520296 -0.12726904 0.07439127 -0.08613994
0.06941868 0.091296345 0.114402525 -0.079469554 -0.1943483 0.05365192 0.07586157 0.12321704
-0.12350608 0.10745458 -0.15944509 -0.17282854 0.041127007 -0.1960303 -0.11754922 -0.09402947
-0.17295563 0.06460646 -0.15035963 -0.16610983 -0.13971919 -0.06270035 0.10687935 0.061163034
0.10828511 -0.10248994 -0.047497883 -0.073008925 -0.13995023 0.15204176 -0.19698335 -0.075626016
0.026231218 -0.19168703 -0.030183649 0.02882706 -0.09772201 0.07717809 0.06279922 -0.18616097
-0.1150319 -0.04479463 0.0016549986 0.06646993 -0.14696369 0.09196245 -0.16182452 0.052804448
-0.101111725 -0.16197671 0.018064437 0.020355012 0.086657405 -0.060771897 0.09174689 0.008074399
00000000: 2eca 15be 7295 64be cfad 6abd 1cf8 c7bc
00000010: ee23 e8bd 4277 303e 6d7a 81bd 9c4a f3bd
00000020: eec5 603d f10c 07be 920f 6abc 777e babc
00000030: 8a5c dd3d 6e36 05bd af8e bb3d fec4 38be
00000040: 5f1b c0bd 0d3c 14be 60f7 37be 4939 703d
00000050: c077 ec3c d980 7ebd 9c26 823c 744c 0fbd
00000060: db3b 7bbd c23d ad3d ccc8 f4bd 1e0d fdbc
00000070: fe77 c9bd 55a4 d33d 6ca2 1a3d 096c 0b3e
00000080: 8ce0 043e 6e0f bcbd 4597 19be 67b6 253c
00000090: b2ef 1cbe 7297 393e f156 bdbd 694d e83d
000000a0: 6994 213d 6e62 c53d d78f 1dbe 7e94 883d
000000b0: 2962 09bc b639 dc3d 2988 d6bd 7010 a4bd
000000c0: eb8b b43d 831f 073e 08c3 903c afac 28be
000000d0: 939a 19bc 3a27 0ebe fe48 d0bd 0785 2c3d
000000e0: af18 293d 824b f5bd 6bf2 483d 5a41 35be
000000f0: babd bc3d 3472 0b3e 45cc 62be fef8 d2bd
00000100: 0864 54be ccc5 f33c 4b19 c63d e0be 47be
00000110: a00c 13be 23d9 cebb e3f3 13bc 3790 c83c
00000120: e049 de3d c37a d5bc 19fd cfbc eddd 17be
00000130: 2963 3c3d c336 32be f7ce c1bd 9728 5e39
00000140: 0305 ac3d 8944 02be 95ec a33d 194e 9fbd
00000150: b16e 7abd 7d4b afbd 70d6 073e e8cd 45be
00000160: f5d5 53be bbdf edbd 7c9e 38be f806 4cbe
00000170: 3659 d33d 22cb c63d 817c 11bc baa4 5fbd
00000180: b558 7fbd fe78 003e a351 043e 253c b9bc
00000190: cbaa 28be 927c d63d df85 c73c bd10 cabd
000001a0: 601e 9bbd c0ba 36bd 5b8e ab3d c692 d6bd
000001b0: 666f 89bb 354a 7d3d 39a8 c13d 8b03 12be
000001c0: efde 4c3d 5c72 14be c76e 943c 1d70 15bc
000001d0: b7af 903d c8b6 933d a82e 0cbe dfd3 3b3e
000001e0: 5460 94bc 1329 2f3d 9922 f23d fa51 eeba
000001f0: c785 a7bd 45cc 2d3e 3a5f 6e3d c543 3bbd
00000200: 677e 0cbe 45cc 3abd 1482 12be 8f91 c23d
00000210: eab0 223e 8a25 32be 6dcc 8f3d c667 25be
00000220: cec5 1abc 17f2 4f3d d51b cc3d 8237 75bd
00000230: 71c2 c83d ce9a c6bd 4fe9 2c3b a758 cd3d
00000240: 7ef8 a2bd 1d53 bd3d 3f83 0ebd 4dfc 8c3d
00000250: 0594 0b3e 4fd9 5e3d 21a7 e63c d9d3 2fbe
00000260: 29e6 98bd 155b f9bd 6136 0cbe ef7a b03d
00000270: 905a 823d 37db 18be b2bb fc3d 3d87 19be
00000280: cfb7 b8bc 9886 383c f2d4 cf3d 6d72 cf3c
00000290: 3665 17be 861d f0bd 91da 51be ee3a dbbd
000002a0: bf3b 0ebe 1a91 e2bd 9e72 713d eda4 e33c
000002b0: d03a ecbd 706c 20be 65b8 363d 3d0b 083e
000002c0: 7c6d b8bd 3a2b 9abb b0bf 523d 1c38 e93d
000002d0: 675b 923b 6b08 e8bd d19b 4d3d 552d 17bd
000002e0: 08a7 6f3d 56cc 28be a8c5 6a3b c00c 00be
000002f0: ef9d e7bb 17ff 2abe 4710 12be efd3 e83d
00000300: 317d 06be 3fe9 973c b35c 42bd c274 c53d
00000310: 2e1a a8bc d152 02be 735a 983d 236a b0bd
00000320: 622b 8e3d 94f9 ba3d df4b ea3d efc0 a2bd
00000330: 3e03 47be 1ec2 5b3d 505d 9b3d 3759 fc3d
00000340: c1f0 fcbd 2611 dc3d 9345 23be f7f9 30be
00000350: cb74 283d 2bbc 48be a5bd f0bd 8692 c0bd
00000360: 481b 31be 6450 843d e0f7 19be b218 2abe
00000370: 8c12 0fbe 0b69 80bd 90e3 da3d 1786 7a3d
00000380: 95c4 dd3d 3fe6 d1bd 248d 42bd b485 95bd
00000390: 1d4f 0fbe d6b0 1b3e 01b6 49be d0e1 9abd
000003a0: dae2 d63c 9b49 44be b343 f7bc ba26 ec3c
000003b0: 7a22 c8bd 8c0f 9e3d e19c 803d fba0 3ebe
000003c0: d895 ebbd 937a 37bd 8aec d83a 6321 883d
000003d0: a67d 16be cf56 bc3d 54b5 25be 7a49 583d
000003e0: aa13 cfbd 39dd 25be dffb 933c 8ebf a63c
000003f0: 7079 b13d f4eb 78bd cbe5 bb3d 7c4a 043c

2.weight f4 [256, 256]
-0.0025933685 0.00025759565 -0.07360559 0.034894206 -0.0736744 -0.111681476 -0.043537077 0.01152788
-0.055312917 -0.05476624 0.028899278 -0.025598489 0.0147969015 -0.036269773 0.01705189 0.021719487
-0.039541867 -0.057805277 -0.072335355 0.022759922 -0.035773817 -0.011752353 -0.074040815 -0.081953414
-0.007936034 -0.0016605959 0.048423823 -0.07468943 -0.08223101 0.0070684184 0.042248104 0.012961726
0.07931158 0.030884279 -0.06322236 0.009176434 0.012582495 0.037871376 -0.070289545 -0.057469685
-0.008632862 0.049703635 -0.010097434 0.02920629 0.05270521 0.01618687 -0.008132815 -0.017111054
0.00019784449 0.047692217 -0.0034355023 -0.04614197 -0.018606594 0.07822844 -0.0107945055 -0.031014513
-0.054442976 0.0057897256 -0.0068749874 -0.06888849 0.0048409565 -0.10556447 -0.050327543 -0.03422553
-0.020339387 0.053302404 -0.03306479 0.0849996 -0.01888171 -0.07084162 0.013215972 -0.05816587
-0.026253665 -0.05205265 0.0656848 -0.045968734 0.035844818 0.061125398 -0.067892864 -0.010166366
-0.046673663 -0.08279754 0.065145284 -0.038220253 -0.07235297 0.016913863 0.038522635 -0.026077954
-0.050703812 -0.027956955 0.047500882 0.018483248 -0.040739324 0.013516604 -0.058366876 -0.029417232
-0.07116906 0.021241901 -0.026713388 0.065419324 -0.09453906 -0.06413233 -0.03914571 0.014269938
-0.056924634 -0.05573435 0.005454422 -0.0055085504 -0.007912073 -0.013870237 -0.0377859 -0.004245643
-0.014132226 -0.018767461 -0.065369636 0.018876897 -0.013831636 -0.03977794 0.00806039 0.0077762897
0.050354008 -0.0390692 -0.10295531 -0.00067794335 -0.06983365 -0.10704317 -0.07769277 -0.014097594
0.044480257 -0.04839344 -0.050227944 -0.0974101 -0.051138032 -0.05951325 -0.012147082 -0.031632446
0.09283299 -0.08010547 0.020445613 -0.049104515 0.016231049 -0.05649182 -0.08427243 -0.068988875
-0.07532365 -0.07688776 0.03574404 -0.0065030083 -0.01843492 -0.07466508 0.057891343 0.045145057
-0.05464075 -0.02981713 -0.03093409 -0.030971553 -0.11399842 0.016901098 -0.09177833 0.13360259
0.0345054 -0.034995295 0.012487855 -0.017206833 -0.038621567 -0.07781801 -0.0058196615 0.11407144
-0.057978667 -0.0801593 0.007358903 -0.037977353 0.009825966 0.05763757 0.026622664 -0.073013544
-0.017857173 -0.024448266 0.028019737 -0.07523924 -0.106250286 -0.033194087 -0.024862813 -0.060068585
-0.031027103 -0.016030254 -0.025034383 0.049314 0.062196672 0.06332034 -0.023766734 -0.06650562
0.017869415 0.033353813 -0.06578902 -0.010709034 -0.062474117 0.01653306 0.015106019 -0.0538202
-0.059578113 -0.03842881 -0.08230208 0.0022211322 0.0024259544 -0.0022462923 0.031114705 -0.050107613
-0.09409813 -0.044226054 0.030087292 -0.07710086 -0.09930076 -0.02366454 -0.08676694 -0.051874705
0.00090807327 -0.087624244 -0.10121494 -0.006134843 0.022460643 -0.059297714 -0.03799149 -0.06570643
0.02063555 -0.050248567 -0.0251704 -0.050192796 -0.07665227 -0.074964434 0.047121044 -0.022252643
0.088064365 0.0025150394 0.03633822 -0.0013580759 0.102539755 -0.035198722 -0.019957637 0.051539954
-0.019792933 -0.06454799 -0.0023768817 -0.1529628 -0.027043352 0.061962776 0.06741587 0.011673339
-0.08452541 -0.05531018 -0.08437507 -0.10745574 -0.12463485 0.056098845 -0.0349019 -0.048539396
00000000: 81f5 29bb e70d 8739 87be 96bd 3aed 0e3d
00000010: 9be2 96bd 42b9 e4bd ef53 32bd 6fdf 3c3c
00000020: cc8f 62bd 9152 60bd 2ebe ec3c ecb3 d1bc
00000030: b46e 723c 9d8f 14bd 68b0 8b3c 11ed b13c
00000040: a7f6 21bd 3ac5 6cbd 8f24 94bd 0473 ba3c
00000050: 9187 12bd f18c 40bc b6a2 97bd 31d7 a7bd
00000060: 2406 02bc 5aa8 d9ba 0f58 463d c6f6 98bd
00000070: bb68 a8bd 319e e73b 590c 2d3d 6b5d 543c
00000080: 1c6e a23d 0701 fd3c ba7a 81bd c158 163c
00000090: cf26 4e3c 041f 1b3d f7f3 8fbd 5565 6bbd
000000a0: d970 0dbc 0a96 4b3d b56f 25bc 0842 ef3c
000000b0: 6be1 573d 549a 843c 803f 05bc 7b2c 8cbc
000000c0: 7a74 4f39 ea58 433d 2a26 61bb 5dff 3cbd
000000d0: db6c 98bc 3b36 a03d 70db 30bc 2612 febc
000000e0: 99ff 5ebd bdb7 bd3b 9347 e1bb 6915 8dbd
000000f0: e3a0 9e3b 2f32 d8bd 4124 4ebd 1230 0cbd
00000100: c99e a6bc 9f53 5a3d f26e 07bd 4514 ae3d
00000110: d1ad 9abc 6915 91bd ce87 583c 563f 6ebd
00000120: ed11 d7bc 2935 55bd c185 863d b649 3cbd
00000130: 04d2 123d a05e 7a3d 6a0b 8bbd d490 26bc
00000140: e22c 3fbd c291 a9bd e46a 853d d78c 1cbd
00000150: cb2d 94bd f18e 8a3c e9c9 1d3d 6fa1 d5bc
00000160: cdae 4fbd fc05 e5bc 4990 423d 2e6a 973c
00000170: 47de 26bd bf74 5d3c 1b12 6fbd 68fc f0bc
00000180: 16c1 91bd 7f03 ae3c 09d6 dabc 91fa 853d
00000190: b29d c1bd d057 83bd 4157 20bd 75cc 693c
000001a0: ce29 69bd b449 64bd 02bb b23b 1281 b4bb
000001b0: a4a1 01bc fe3f 63bc 63c5 1abd 091f 8bbb
000001c0: da8a 67bc 38be 99bc 84e0 85bd b9a3 9a3c
000001d0: 169e 62bc 31ee 22bd ba0f 043c 3fd0 fe3b
000001e0: 0140 4e3d 0707 20bd 3cda d2bd 02b8 31ba
000001f0: f204 8fbd 7339 dbbd 631d 9fbd 98f9 66bc
00000200: ee30 363d 3338 46bd d1bb 4dbd f27e c7bd
00000210: 1d76 51bd 2ac4 73bd 8e04 47bc 0691 01bd
00000220: 391f be3d 560e a4bd 8f7d a73c d121 49bd
00000230: faf6 843c f763 67bd 0697 acbd 0a4a 8dbd
00000240: 4943 9abd 5477 9dbd 5868 123d 3017 d5bb
00000250: d404 97bc 01ea 98bd 791f 6d3d 06ea 383d
00000260: fbce 5fbd 0e43 f4bc 7d69 fdbc 0eb8 fdbc
00000270: 0178 e9bd 2c74 8a3c 47f6 bbbd 1ecf 083e
00000280: 8955 0d3d 3a57 0fbd dc99 4c3c 58f5 8cbc
00000290: a631 1ebd 0c5f 9fbd dcb2 bebb 4a9e e93d
000002a0: 0a7b 6dbd 8f2a a4bd f422 f13b 248e 1bbd
000002b0: 17fd 203c 5f15 6c3d c617 da3c 2088 95bd
000002c0: 3549 92bc bb47 c8bc a689 e53c 0817 9abd
000002d0: c099 d9bd 86f6 07bd 19ad cbbc 7a0a 76bd
000002e0: 8d2c febc e151 83bc e814 cdbc 7afd 493d
000002f0: f0c1 7e3d 18ae 813d 74b2 c2bc 1934 88bd
00000300: e162 923c 029e 083d 65bc 86bd f274 2fbc
00000310: dce4 7fbd 5770 873c 3c7f 773c 9272 5cbd
00000320: 2e08 74bd 8767 1dbd fe8d a8bd 6a90 113b
00000330: c3fc 1e3b 8836 13bb 44e4 fe3c a43d 4dbd
00000340: 85b6 c0bd 6126 35bd a079 f63c 0ee7 9dbd
00000350: 325e cbbd 23dc c1bc deb2 b1bd 927a 54bd
00000360: c40b 6e3a 5774 b3bd c749 cfbd cb06 c9bb
00000370: 62ff b73c 29e2 72bd f79c 1bbd 1891 86bd
00000380: e30b a93c 71d1 4dbd 2832 cebc f696 4dbd
00000390: defb 9cbd f486 99bd ff01 413d 2d4b b6bc
000003a0: 175b b43d 5cd3 243b 63d7 143d 7701 b2ba
000003b0: 5d00 d23d 892c 10bd 337e a3bc 8f1b 533d
000003c0: ca24 a2bc bd31 84bd 75c5 1bbb 48a2 1cbe
000003d0: 058a ddbc aecc 7d3d 5511 8a3d 8841 3f3c
000003e0: a81b adbd ed8c 62bd d6cc acbd c111 dcbd
000003f0: 8e40 ffbd e7c7 653d 4bf5 0ebd 3fd1 46bd

2.bias f4 [256]
-0.05303208 -0.042958118 -0.0500744 0.048079103 0.04672592 -0.06136707 -0.044290945 0.029341402
0.0018741904 0.007173361 0.037776038 -0.08863242 0.01004407 -0.007812042 -0.07192883 -0.015093589
-0.046287533 0.013529317 0.0010701448 -0.020318294 0.005921406 -0.089697026 0.040282838 -0.061615102
0.03422998 -0.096109085 0.027069861 0.07509611 -0.031182118 -0.006212556 -0.02249828 0.012916272
-0.04555928 -0.071424596 -0.05033472 -0.056880694 -0.061689653 -0.0060291006 -0.04101017 -0.087338835
0.059699923 -0.014084013 0.02351122 -0.048524182 -0.04515964 0.01555304 0.0029618316 0.027393911
-0.021877475 -0.05111246 -0.048830923 -0.0004429838 -0.050455954 -0.001873485 0.044405643 -0.029500479
-0.018052263 0.017956393 -0.034904912 -0.040805575 0.016653739 0.035321627 -0.0032999371 -0.02371544
0.014993059 -0.057912663 -0.042278294 -0.051009018 -0.062958755 0.005044094 -0.03151759 -0.016718263
-0.08584435 -0.012630831 -0.019929806 -0.011733648 -0.0824093 -0.00055326975 0.0035268352 -0.025568593
-0.067230485 -0.05303686 -0.0047328556 0.016373012 0.001164952 -0.08263098 -0.051859237 0.018322768
0.043651264 -0.048600987 -0.006422543 -0.020533305 0.02091938 -0.02421347 0.047270432 0.006010049
0.018359981 -0.029351842 -0.037170257 -0.023384916 0.02592872 0.026597852 -0.0424057 0.023356877
-0.024571905 -0.013072816 0.012663123 -0.0021800678 -0.038601242 0.0214827 0.04314379 -0.048124805
-0.05963418 -0.031760454 -0.02685278 0.03868783 -0.013792212 -0.07099249 0.04360801 -0.026093174
-0.014833021 -0.097415574 0.053978227 0.10522912 0.012582224 0.00520128 0.047704183 -0.084391974
-0.06800769 0.045384914 0.026108187 -0.04196986 0.0595292 -0.050178222 0.029856782 -0.06587609
-0.0013262843 -0.005975512 -0.08381736 0.023944056 -0.068455145 0.029366016 -0.027295189 -0.06482704
0.05390897 -0.06918686 -0.054720264 0.032807924 -0.015954882 0.042692013 0.0024427266 -0.04647916
-0.009323643 0.045732636 0.069353625 -0.03340441 -0.009531589 -0.061731666 0.07996965 0.036406934
-0.040217374 -0.0681821 0.033075668 0.012791684 0.007042126 -0.018562024 -6.717235e-05 -0.0007199609
-0.07950101 -0.05340229 -0.043476228 -0.0046460945 0.0070196562 -0.037794035 -0.018705254 -0.05171973
0.0022830411 0.0011323 0.003962241 0.07039253 -0.06199501 -0.046991404 -0.002247884 -0.029464455
0.025767352 -0.042150944 -0.07060373 -0.013381376 -0.061613698 0.009574416 -0.017899867 0.015753586
-0.001104366 -0.07494217 0.04374927 -0.04216531 -0.10725323 0.025574502 -0.034165673 0.006853639
-0.034915354 0.05442715 0.032071065 -0.052011814 -0.01507187 0.018250983 -0.06820664 -0.034100186
0.013288442 0.040773313 0.05342861 0.03725795 -0.09254179 -0.0040620985 0.042373683 -0.0037626466
0.0074571534 -0.087590866 -0.020774705 -0.023222487 -0.013962169 -0.08069441 -0.07164454 0.045860812
-0.07496907 -0.042531453 -0.007033426 0.001561835 -0.004913398 0.00015174095 -0.011586393 -0.048957016
0.04974422 0.0046096863 -0.0010568543 -0.036829893 0.027003633 -0.016570816 -0.051311497 0.046476457
-0.067003995 -0.07051095 -0.06220731 0.018370172 0.04420667 -0.04930039 -0.0064682486 -0.03363955
-0.017598934 0.046097696 -0.0031347468 -0.07039468 -0.056659166 -0.032397583 -0.000185235 -0.07805098
00000000: 2b38 59bd daf4 2fbd d01a 4dbd 98ee 443d
00000010: ae63 3f3d 095c 7bbd 6c6a 35bd 615d f03c
00000020: 65a7 f53a 830e eb3b 0cbb 1a3d ea84 b5bd
00000030: e28f 243c 28fc ffbb 6c4f 93bd 1a4b 77bc
00000040: ff97 3dbd 12aa 5d3c 1a44 8c3a 8d72 a6bc
00000050: 5b08 c23b 13b3 b7bd 9eff 243d 1e60 7cbd
00000060: bc34 0c3d d7d4 c4bd 9dc1 dd3c fdcb 993d
00000070: a471 ffbc b292 cbbb 504e b8bc c59e 533c
00000080: 5e9c 3abd 0f47 92bd c82b 4ebd bbfb 68bd
00000090: 4aae 7cbd c38f c5bb 48fa 27bd b4de b2bd
000000a0: e887 743d a2c0 66bc 9a9a c03c 4bc1 46bd
000000b0: 51f9 38bd 2ed2 7e3c 4a1b 423b 3269 e03c
000000c0: 6438 b3bc 4d5b 51bd ef02 48bd 4740 e8b9
000000d0: e7aa 4ebd ba8f f5ba b1e2 353d fdaa f1bc
000000e0: 57e2 93bc 4919 933c 74f8 0ebd bf23 27bd
000000f0: 6c6d 883c 69ad 103d c243 58bb e246 c2bc
00000100: 73a5 753c d435 6dbd 012c 2dbd d5ee 50bd
00000110: 85f0 80bd ed48 a53b 9718 01bd bdf4 88bc
00000120: 2acf afbd 8cf1 4ebc d543 a3bc 7d3e 40bc
00000130: 35c6 a8bd 4e09 11ba 7a22 673b 3a75 d1bc
00000140: 23b0 89bd 2e3d 59bd 1216 9bbb b220 863c
00000150: 4db1 983a 6e3a a9bd 5a6a 54bd a119 963c
00000160: abcb 323d d411 47bd 3274 d2bb 7635 a8bc
00000170: 1f5f ab3c 545b c6bc a49e 413d f2ef c43b
00000180: ac67 963c 4673 f0bc d73f 18bd b991 bfbc
00000190: 7868 d43c bde3 d93c 99b1 2dbd ec56 bf3c
000001a0: 054b c9bc 5d2f 56bc fd78 4f3c 78df 0ebb
000001b0: 561c 1ebd 7dfc af3c 8bb7 303d 841e 45bd
000001c0: f842 74bd 4017 02bd 5cfa dbbc 2177 1e3d
000001d0: bbf8 61bc 8364 91bd 509e 323d 5ac1 d5bc
000001e0: 3306 73bc d181 c7bd 4618 5d3d 5d82 d73d
000001f0: ac25 4e3c 806f aa3b 7665 433d b3d5 acbd
00000200: 9e47 8bbd 88e5 393d d6e0 d53c 97e8 2bbd
00000210: e4d4 733d ae87 4dbd 3696 f43c 0bea 86bd
00000220: b7d6 adba 3ace c3bb 70a8 abbd 5326 c43c
00000230: 3632 8cbd 0091 f03c 299a dfbc 0ac4 84bd
00000240: a7cf 5c3d d7b1 8dbd 5b22 60bd 9a61 063d
00000250: d0b3 82bc d2dd 2e3d 2716 203b ef60 3ebd
00000260: 31c2 18bc 2552 3b3d 4609 8e3d 10d3 08bd
00000270: 622a 1cbc 58da 7cbd 21c7 a33d 701f 153d
00000280: f9ba 24bd 0fa3 8bbd 5a7a 073d 3694 513c
00000290: a2c1 e63b 630f 98bc e1de 8cb8 c2bb 3cba
000002a0: 6dd1 a2bd 5cbc 5abd 2114 32bd 443e 98bb
000002b0: 2505 e63b ebcd 1abd c33b 99bc 11d8 53bd
000002c0: 139f 153b af69 943a b0d5 813b f529 903d
000002d0: 7bee 7dbd 0f7a 40bd 3c51 13bb 715f f1bc
000002e0: 0e16 d33c 78a6 2cbd b098 90bd 8f3d 5bbc
000002f0: a55e 7cbd 03de 1c3c bea2 92bc aa0d 813c
00000300: 60c0 90ba 487b 99bd 6f32 333d 88b5 2cbd
00000310: 95a7 dbbd 9e81 d13c 4ef1 0bbd 7e94 e03b
00000320: 6703 0fbd 01ef 5e3d f35c 033d 570a 55bd
00000330: 01f0 76bc 1683 953c ecaf 8bbd a3ac 0bbd
00000340: c4b7 593c eb01 273d f5d7 5a3d cb9b 183d
00000350: 8d86 bdbd 5a1b 85bb 0790 2d3d bc96 76bb
00000360: 235b f43b d762 b3bd b72f aabc 163d bebc
00000370: 95c1 64bc 1c43 a5bd 5fba 92bd 8cd8 3b3d
00000380: 6289 99bd 7635 2ebd a778 e6bb 7cb6 cc3a
00000390: 9200 a1bb a71c 1f39 dbd4 3dbc 2787 48bd
000003a0: 98c0 4b3d da0c 973b 2586 8aba f1da 16bd
000003b0: b936 dd3c 85bf 87bc 012c 52bd 195e 3e3d
000003c0: 6439 89bd 0c68 90bd 18cd 7ebd 0b7d 963c
000003d0: 0e12 353d 35ef 49bd 9af3 d3bb a0c9 09bd
000003e0: a42b 90bc f0d0 3c3d 5370 4dbb 162b 90bd
000003f0: 7113 68bd 54b3 04bd a43b 42b9 31d9 9fbd

4.weight f4 [256, 256]
0.034973864 -0.06609198 0.07213489 -0.06536986 -0.09396993 -0.035497807 -0.031948674 -0.030233486
0.04386193 0.102635324 0.011532011 -0.04957555 -0.05622342 -0.011600124 0.058923423 0.007735725
0.040617857 0.054661434 0.10737243 -0.063848644 -0.03955889 0.0031880832 -0.041738413 0.0925009
-0.08004427 -0.13192597 0.015032518 -0.013830841 -0.015466028 -0.044697974 -0.0002112905 -0.05079957
-0.018817833 0.006872041 0.014045918 0.055805974 -0.0020378998 0.04006389 0.06921766 0.07236427
0.02400974 -0.04449976 -0.021298053 0.090134665 0.012508381 -0.060790155 0.01341292 0.007116791
0.0081313085 -0.00010206796 -0.13786921 0.114304684 -0.056317158 -0.091910094 -0.09319778 0.01583428
0.030887522 -0.041785363 -0.054049417 -0.10660811 0.009379919 0.08524157 -0.044898424 0.01682483
-0.009590466 0.13161902 -0.0084547205 0.03911984 -0.019243518 0.04393284 0.058215357 0.022438994
-0.0064015635 -0.037200708 0.050519474 -0.05890312 0.011010354 -0.08968703 -0.023150392 0.023997879
-0.063749425 0.024354756 0.040608108 0.10355936 0.0940605 0.061518993 0.10292372 0.029011229
0.07290032 -0.066196516 -0.05654202 0.07136166 0.014329476 -0.0712688 -0.019794257 -0.053535346
-0.060863484 -0.04534925 -0.04397665 -0.09899376 0.057765428 0.12160406 -0.03398954 0.08027166
0.09010739 -0.013056885 -0.032646876 0.044789333 -0.09075651 0.027256304 0.04941155 -0.031656276
-0.028782383 0.00837172 0.032285232 0.09703732 -0.13562195 0.11337434 -0.014602847 0.008136397
-0.018169645 -0.0052179373 -0.031305633 -0.07615854 0.1918783 0.06897253 -0.023333844 0.04673755
-0.036694713 0.00022087907 0.0013722945 0.03184132 0.071133316 0.038571738 0.084167756 0.025172705
-0.04200966 -0.00015721639 0.041933466 -0.072838366 0.032824036 -0.07436689 -0.006803529 0.08731363
0.010116438 0.058122374 0.038652454 0.017247023 -0.08202023 0.03782426 0.0071770595 0.046789303
-0.030203843 -0.015336873 -0.017191738 -0.12141879 -0.08179922 -0.037232887 -0.03722149 -0.09808998
0.09407711 0.086935245 0.03014484 0.06739959 0.005505488 0.034092452 0.06966878 0.07372572
0.043816403 0.0044604386 -0.029041035 -0.058473244 -0.024708709 -0.03290862 0.04391357 -0.04470543
-0.04670543 -0.017225364 -0.008087614 0.02182675 0.06449803 0.15993454 0.006921005 0.077548
0.04079193 -0.07016121 0.024055358 -0.053652905 -0.02856036 0.0078741675 0.027598832 -0.0029252768
-0.04368621 0.05311178 -0.00016023188 0.02003869 0.020082295 0.051149767 -0.07499183 -0.031711742
0.11578218 0.058448177 -0.030137641 0.0109765455 0.029651757 0.11917511 -0.029382018 -0.05103454
0.007820997 0.07281282 -0.04980006 0.08263107 -0.055336744 0.03046118 0.0222923 0.01601236
0.05144021 0.03539982 -0.04787572 -0.001061738 -0.043188322 -0.007205526 -0.07635224 -0.115754396
-0.037356287 0.06954664 -0.06979792 0.04171651 -0.04057883 -0.051788665 0.039442137 0.01904751
0.04820633 -0.055891007 -0.051220816 0.04666104 0.02838447 -0.1220068 -0.013169259 -0.08912223
0.024968406 0.09863814 -0.01071705 0.082607456 -0.0075797555 -0.013765245 -0.042292263 0.118449405
-0.057938293 -0.023177814 -0.037245963 -0.00050539605 -0.011589854 -0.029265396 -0.06992797 -0.035496034
00000000: c140 0f3d 3b5b 87bd 75bb 933d a2e0 85bd
00000010: 4f73 c0bd 2666 11bd 9ddc 02bd 37ac f7bc
00000020: 91a8 333d 7832 d23d c3f0 3c3c bb0f 4bbd
00000030: 874a 66bd 720e 3ebc b059 713d f77b fd3b
00000040: e95e 263d abe4 5f3d 14e6 db3d 14c3 82bd
00000050: 8108 22bd 29ef 503b e6f5 2abd 1d71 bd3d
00000060: 40ee a3bd 9a17 07be f34a 763c c09a 62bc
00000070: 3965 7dbc 3915 37bd dd8d 5db9 3613 50bd
00000080: db27 9abc dc2e e13b da20 663c ce94 643d
00000090: 498e 05bb 091a 243d fdc1 8d3d b833 943d
000000a0: 13b0 c43c 6145 36bd 4179 aebc 8698 b83d
000000b0: f4ef 4c3c 19ff 78bd ddc1 5b3c f833 e93b
000000c0: 2e39 053c 520d d6b8 962d 0dbe 9318 ea3d
000000d0: d2ac 66bd 5c3b bcbd 7ade bebd e4b6 813c
000000e0: d407 fd3c 2127 2bbd ec62 5dbd 5a55 dabd
000000f0: 3bae 193c 2293 ae3d 69e7 37bd 3ad4 893c
00000100: 5421 1dbc 23c7 063e ab85 0abc 203c 203d
00000110: 95a4 9dbc ecf2 333d 3a73 6e3d fbd1 b73c
00000120: 35c4 d1bb c55f 18bd 82ed 4e3d 6644 71bd
00000130: c664 343c d5ad b7bd e4a5 bdbc 3397 c43c
00000140: 0f8f 82bd a083 c73c b054 263d ee16 d43d
00000150: cba2 c03d 57fb 7b3d acc9 d23d f5a8 ed3c
00000160: c34c 953d 0a92 87bd 9b98 67bd 1026 923d
00000170: 2ec6 6a3c 60f5 91bd 9127 a2bc e147 5bbd
00000180: fd4b 79bd 23c0 39bd dc20 34bd 3ebd cabd
00000190: 719b 6c3d 8d0b f93d 9e38 0bbd 7865 a43d
000001a0: 398a b83d 8cec 55bc bbb8 05bd 0575 373d
000001b0: 8dde b9bd 9d48 df3c c463 4a3d 03aa 01bd
000001c0: 08c9 ebbc 8a29 093c 853d 043d 81bb c63d
000001d0: 7be0 0abe ce30 e83d c840 6fbc 864e 053c
000001e0: 82d8 94bc 3bfb aabb 563a 00bd 02f9 9bbd
000001f0: bf7b 443e 7841 8d3d 9e26 bfbc e06f 3f3d
00000200: 324d 16bd c69b 6739 90de b33a 0b6c 023d
00000210: 58ae 913d 66fd 1d3d 2560 ac3d fd36 ce3c
00000220: 5212 2cbd 74da 24b9 6dc2 2b3d 482c 95bd
00000230: 7f72 063d ab4d 98bd 23f0 debb 7dd1 b23d
00000240: 6bbf 253c ba11 6e3d 0952 1e3d a149 8d3c
00000250: 39fa a7bd 9ced 1a3d 8a2d eb3b 24a6 3f3d
00000260: 0d6e f7bc 8247 7bbc b0d5 8cbc 6aaa f8bd
00000270: 5986 a7bd 8381 18bd 9075 18bd 66e3 c8bd
00000280: 80ab c03d 1b0b b23d 50f2 f63c cc08 8a3d
00000290: 6167 b43b 87a4 0b3d 81ae 8e3d 83fd 963d
000002a0: d478 333d df28 923b 77e7 edbc a481 6fbd
000002b0: eb69 cabc 30cb 06bd b7de 333d 0a1d 37bd
000002c0: 314e 3fbd 351c 8dbc e981 04bc 03ce b23c
000002d0: 8b17 843d e1c5 233e 99c9 e23b 7cd1 9e3d
000002e0: 7015 273d aeb0 8fbd be0f c53c 26c3 5bbd
000002f0: 6bf7 e9bc a702 013c f216 e23c 00b6 3fbb
00000300: 50f0 32bd bd8b 593d eb03 28b9 2e28 a43c
00000310: a083 a43c 6b82 513d 5195 99bd 2ce4 01bd
00000320: 351f ed3d 5b67 6f3d 37e3 f6bc f8d6 333c
00000330: 3ee8 f23c 1412 f43d 8fb2 f0bc 9809 51bd
00000340: a423 003c e31e 953d 26fb 4bbd 7a3a a93d
00000350: c8a8 62bd b989 f93c 579e b63c 5a2c 833c
00000360: f8b2 523d 67ff 103d 5519 44bd 042a 8bba
00000370: 3de6 30bd 551c ecbb 905e 9cbd a410 edbd
00000380: e802 19bd 786e 8e3d 36f2 8ebd eede 2a3d
00000390: fd35 26bd 5a20 54bd 148e 213d 8609 9c3c
000003a0: 0074 453d f8ed 64bd ebcc 51bd a61f 3f3d
000003b0: 8c86 e83c b3de f9bd e0c3 57bc b785 b6bd
000003c0: 8b8a cc3c cb02 ca3d 9196 2fbc 192e a93d
000003d0: 995f f8bb 9f87 61bc a73a 2dbd 9a95 f23d
000003e0: b450 6dbd 66df bdbc 398f 18bd 8e7c 04ba
000003f0: 5fe3 3dbc fcbd efbc 6536 8fbd 4a64 11bd

4.bias f4 [256]
-0.008921102 0.017183827 -0.035842318 0.00088318257 0.02360703 -0.117434286 0.031008793 -0.017917054
0.060627233 -0.066430874 -0.036539614 0.028874721 0.10096098 0.105466135 -0.020680891 -0.014708885
-0.05823594 -0.06224167 0.060366523 -0.024728427 -0.04280247 -0.047935374 -0.08199791 0.050001882
-0.04543912 0.0039032649 0.071688324 0.032528643 0.08867218 -0.038785513 0.07423284 0.081045695
-0.026638271 0.07978429 0.037496537 0.048450965 -0.07150852 -0.16247576 -0.016436122 0.028943293
-0.087593615 0.14396745 0.067063525 -0.1094702 -0.03368773 -0.0786583 -0.05531098 -0.18564346
0.01762907 0.01646624 0.0969031 0.081507675 0.06334924 -0.06175307 -0.067452766 -0.0417318
-0.12351403 -0.035273157 -0.0006572823 0.098276295 -0.09779952 -0.045706224 -0.073445596 0.09403339
0.076538205 0.11996017 -0.07145152 -0.084892824 -0.11301682 0.04984527 -0.07412603 0.009666868
0.033052377 -0.049441412 -0.10151972 -0.057510696 -0.004419505 -0.006283133 -0.004133284 -0.036480665
-0.16604808 -0.06694855 0.08575604 -0.102543935 -0.01565272 -0.018110547 0.016536959 -0.06611006
-0.064593166 0.020361949 -0.08964556 -0.048498247 0.06735585 0.03672597 0.015954897 -0.032785024
-0.05841584 -0.00045182544 -0.21196744 -0.09464492 0.059713416 -0.035902526 0.06407827 -0.018443879
-0.05147909 0.054001484 -0.041298863 0.006454987 0.00022235043 0.01595788 -0.06892106 0.00020463955
0.020362439 -0.0729798 0.09748871 0.046030853 -0.046687566 -0.10826797 0.03222512 -0.062072735
-0.122560345 0.04554983 0.14518753 0.008596959 -0.0441984 0.042471744 -0.028482977 -0.00865996
0.047379356 -0.03877309 0.10731546 0.026537657 0.03490667 0.1005163 0.008131898 0.007880687
-0.005187352 0.04100345 -0.093393944 -0.08765167 -0.12222052 -0.18282774 0.023210766 0.014887981
0.057866022 -0.045423727 0.061184175 0.10885662 0.0042210426 0.09453488 -0.0638817 -0.0054996964
-0.07708875 0.022764696 -0.1212111 -0.090136245 -0.0039292807 0.03964788 0.001962532 -0.039616812
-0.14241415 -0.0809504 0.049456477 -0.00454228 0.026701177 -0.10565186 -0.05779292 -0.07734187
-0.10505766 -0.10860133 -0.029765341 0.06234688 0.056277607 0.010249265 -0.012666768 -0.08285786
0.015345584 0.08299088 0.029954068 -0.04167898 0.0077971513 0.015186899 -0.07268799 -0.20370705
-0.0052497075 0.07011581 -0.14381987 0.01839757 0.004745224 0.04832979 -0.0071084965 -0.11438617
-0.08748389 -0.052064132 -0.04988086 -0.023334967 -0.02354379 -0.050669763 0.09089699 0.036961515
-0.05340913 -0.14157878 0.09615133 0.027853215 -0.060771253 0.033083785 -0.049801942 -0.011855281
-0.0034382332 -0.06766986 -0.0012629697 0.034117408 -0.13051875 -0.06519284 -0.027217807 0.016356228
-0.13349745 0.0016458952 -0.04041023 0.008939297 0.0056280685 -0.12501058 0.012057021 0.1256616
0.058789052 0.009897782 -0.09485108 0.007172957 0.02182433 0.05787806 0.09931612 -0.101355344
-0.069759354 -0.05823694 0.031930435 -0.006194964 -0.0095635755 0.07445129 -0.01655723 0.010663177
-0.03493867 0.13982902 -0.09334363 0.013253236 0.057247095 -0.07648919 0.025842616 0.01895714
0.07739627 -0.14029568 -0.12298403 0.0841706 0.06241569 -0.1717126 0.010719645 -0.03466245
00000000: d029 12bc 19c5 8c3c 65cf 12bd 6185 673a
00000010: 8863 c13c 6381 f0bd 2706 fe3c c9c6 92bc
00000020: 4354 783d e90c 88bd 90aa 15bd ae8a ec3c
00000030: a1c4 ce3d a1fe d73d f96a a9bc 89fd 70bc
00000040: cf88 6ebd 1ff1 7ebd e342 773d 4593 cabc
00000050: a551 2fbd e257 44bd 85ee a7bd c6ce 4c3d
00000060: 5f1e 3abd ebcd 7f3b 54d1 923d c13c 053d
00000070: c399 b53d 8fdd 1ebd 6307 983d 49fb a53d
00000080: 8138 dabc f265 a33d f895 193d 8574 463d
00000090: 0f73 92bd 0c60 26be 0ca5 86bc 7c1a ed3c
000000a0: 4864 b3bd 346c 133e 9a58 893d ea31 e0bd
000000b0: 25fc 09bd 9a17 a1bd c48d 62bd 5219 3ebe
000000c0: d76a 903c 35e4 863c 2275 c63d 7fed a63d
000000d0: 3fbd 813d caf0 7cbd ad24 8abd f7ee 2abd
000000e0: ecf4 fcbd 967a 10bd 784d 2cba 1545 c93d
000000f0: 1d4b c8bd 7336 3bbd a56a 96bd 9494 c03d
00000100: 10c0 9c3d adad f53d 2d55 92bd 4adc adbd
00000110: 5d75 e7bd 8e2a 4c3d 63cf 97bd c861 1e3c
00000120: ee61 073d 1483 4abd 92e9 cfbd 5690 6bbd
00000130: 7fd1 90bb bde2 cdbb 8070 87bb c06c 15bd
00000140: 8208 2abe 521c 89bd dda0 af3d 8e02 d2bd
00000150: 223a 80bc 925c 94bc 8478 873c b664 87bd
00000160: 6c49 84bd 1ace a63c 1798 b7bd 19a6 46bd
00000170: ddf1 893d f96d 163d d8b3 823c 9749 06bd
00000180: 7345 6fbd fce2 ecb9 fe0d 59be 32d5 c1bd
00000190: 0e96 743d 870e 13bd 783b 833d 9e17 97bc
000001a0: bddb 52bd a930 5d3d ff28 29bd 5b84 d33b
000001b0: bd26 6939 1aba 823c 7c26 8dbd 8394 5639
000001c0: 21cf a63c 6f76 95bd 29a8 c73d d98a 3c3d
000001d0: 763b 3fbd 99bb ddbd 7dfe 033d fb3f 7ebd
000001e0: eb00 fbbd 7592 3a3d 0aac 143e 42da 0c3c
000001f0: 6209 35bd daf6 2d3d 2255 e9bc 81e2 0dbc
00000200: db10 423d 88d0 1ebd 35c8 db3d 8065 d93c
00000210: 4cfa 0e3d 7ddb cd3d a73b 053c ff1d 013c
00000220: aafa a9bb 3cf3 273d 5345 bfbd b882 b3bd
00000230: c14e fabd 3237 3bbe 8124 be3c b8ec 733c
00000240: ec04 6d3d 3b0e 3abd 429c 7a3d 38f0 de3d
00000250: ac50 8a3b 819b c13d 69d4 82bd cc36 b4bb
00000260: b5e0 9dbd 077d ba3c 863d f8bd 5a99 b8bd
00000270: 32c1 80bb d165 223d d39d 003b 3d45 22bd
00000280: 04d5 11be 53c9 a5bd e092 4a3d 68d7 94bb
00000290: 6dbc da3c 0160 d8bd 45b8 6cbd 6a65 9ebd
000002a0: 7828 d7bd 606a debd 72d6 f3bc 715f 7f3d
000002b0: 5983 663d 88ec 273c 4788 4fbc 62b1 a9bd
000002c0: 0b6c 7b3c 1ff7 a93d 3c62 f53c 94b7 2abd
000002d0: 3f7f ff3b 79d2 783c 71dd 94bd 9598 50be
000002e0: bd05 acbb e198 8f3d 8445 13be 80b6 963c
000002f0: d37d 9b3b 75f5 453d 64ee e8bb 4c43 eabd
00000300: c12a b3bd 3341 55bd df4f 4cbd f928 bfbc
00000310: e8de c0bc 198b 4fbd 3328 ba3d f564 173d
00000320: 88c3 5abd 07fa 10be fdea c43d 6d2c e43c
00000330: 47eb 78bd dd82 073d 1ffd 4bbd a73c 42bc
00000340: fb53 61bb 7f96 8abd 3b8a a5ba b2be 0b3d
00000350: b5a6 05be d383 85bd e1f7 debc 7ffd 853c
00000360: 8eb3 08be 14bb d73a 3385 25bd 2176 123c
00000370: a96b b83b c602 00be d08a 453c 6fad 003e
00000380: cacc 703d 4e2a 223c 4841 c2bd 200b eb3b
00000390: f0c8 b23c 8b11 6d3d 4066 cb3d 6493 cfbd
000003a0: fedd 8ebd dc89 6ebd 7dc9 023d 20ff cabb
000003b0: 8bb0 1cbc eb79 983d 07a3 87bc 9bb4 2e3c
000003c0: da1b 0fbd 572f 0f3e f22a bfbd 1a24 593c
000003d0: ee7b 6a3d 5da6 9cbd e5b3 d33c 014c 9b3c
000003e0: f081 9e3d aca9 0fbe 0ddf fbbd a361 ac3d
000003f0: 98a7 7f3d 6ed5 2fbe 73a1 2f3c 37fa 0dbd

6.weight f4 [1, 256]
0.04811023 0.017758297 0.04144551 -0.0056307376 -0.002436941 0.00796219 0.024013288 -0.0078887725
-0.13059676 -0.01789836 -0.025851732 0.011433516 -0.02225193 -0.015871525 0.0028169835 -0.077975504
0.044548407 0.08608028 0.008035351 -0.039115027 0.003295107 0.025997503 0.008555961 0.05396522
0.042215552 -0.057628863 0.0026771254 -0.074790224 0.016958084 -0.08469105 -0.016331999 -0.00076257094
0.027477443 0.002407311 -0.0013011254 -0.014628546 0.05544429 0.0027906257 -0.011584323 0.0349475
0.08048966 -0.05598809 -0.039124217 -0.0011253768 0.020962361 0.06238013 0.052411236 0.035156313
0.046663485 -0.016185885 -0.060672525 0.004002882 -0.0197911 0.11126546 0.0613988 0.07122855
0.0214073 0.0078922445 0.0039372817 -0.027102318 0.01920265 0.022213478 0.008766816 0.033834875
-0.05278268 -0.0012345393 0.0014594253 0.06147122 0.020695861 -0.00038176865 0.030542322 -0.006096302
-0.019381786 0.06681187 -0.0036398708 -0.12373895 0.01818702 0.025957853 0.043339916 0.12965097
-0.005909619 0.021853669 0.006576407 0.037891943 0.0029221657 0.033758655 0.012710211 0.06332437
0.03514838 0.031437494 0.057543796 0.009402177 -0.044441402 -0.01493999 0.019414354 0.033256065
0.037879184 -0.017266445 0.020824587 0.02467035 -0.026660336 0.017587226 -0.00562395 -0.020213991
0.03575887 -0.057311505 7.968214e-06 -0.013372643 0.026499039 -0.028248366 -0.013505949 -0.051262062
0.0060258647 0.06252304 -0.0038545295 -0.04112316 -0.057202294 0.059796236 -0.11798549 0.097824305
0.01927602 -0.018182252 -0.084542036 -0.015309527 0.106797755 0.02476988 -0.07948184 0.011766359
-0.009498189 0.037583377 -0.03935952 -0.05644296 -0.012455868 -0.011514192 -0.037966017 -0.022877088
0.048802506 -0.05344261 -0.033046488 0.008931267 0.017845517 0.061717145 0.09489986 0.0033431826
-0.02406522 0.01826986 -0.031142578 -0.0027755033 0.02762628 -0.063323334 0.050510913 0.006461351
0.055221334 -0.039536037 0.047388438 0.0067027896 0.0106962295 -0.029759558 -0.0057813856 -0.00517194
0.03122663 0.037500475 -0.08250004 0.008185448 0.025880752 0.04108627 -0.037498053 0.052096523
0.061987337 0.013337296 0.0020625915 0.026645254 -0.0012774961 0.02118259 0.05625794 0.0032991662
-0.038563587 -0.142059 -0.077374384 -0.022187142 -0.08288357 0.024195816 0.13493465 0.009374896
-0.04180389 0.089064375 0.047565173 -0.07078857 -0.037415892 -0.071132235 0.07149494 0.04759399
0.016415283 -0.013962142 0.01813395 -0.04639805 0.0040750215 0.0074262857 -0.009327758 -0.09949895
0.030698847 0.02252219 0.025964249 0.057036374 -0.026565643 -0.03503369 0.04270082 -0.015897637
-0.02881337 0.0816407 -0.0032285554 -0.017082267 0.011338517 0.032975417 -0.082463354 -0.019782592
0.02824523 1.9503475e-05 -0.014887983 0.042714205 -0.02207947 -0.011643554 -0.10553515 0.00078535464
-0.0025290635 -0.0019424343 -0.004558518 -0.026182914 -0.014460626 0.0038640709 0.031883687 0.03548471
0.019328771 0.025138209 0.0041240654 -0.057499092 -0.020893915 0.021122135 0.015364723 0.016096203
0.041690975 0.030332047 0.03947559 0.005073154 -0.038781308 0.079649635 -0.08209123 0.03032067
0.045305125 -0.043616176 0.004702665 -0.07529304 -0.011348823 0.012006593 0.07171027 0.010527173
00000000: 3c0f 453d d979 913c c4c2 293d 0d82 b8bb
00000010: 16b5 1fbb d873 023c 84b7 c43c e93f 01bc
00000020: 28bb 05be 959f 92bc 03c7 d3bc a453 3b3c
00000030: ae49 b6bc 0005 82bc 249d 383b 9fb1 9fbd
00000040: 6478 363d dc4a b03d b4a6 033c 1437 20bd
00000050: b9f2 573b b7f8 d43c 4d2e 0c3c a20a 5d3d
00000060: 37ea 2c3d 3e0c 6cbd b672 2f3b 9e2b 99bd
00000070: aeeb 8a3c 8072 adbd afca 85bc 45e7 47ba
00000080: 6018 e13c fac3 1d3b 868a aaba 92ac 6fbc
00000090: 8d19 633d eee2 363b 2ccc 3dbc 1c25 0f3d
000000a0: c3d7 a43d c453 65bd b740 20bd 6181 93ba
000000b0: 42b9 ab3c 4f82 7f3d 2aad 563d 1100 103d
000000c0: 3622 3f3d 4398 84bc c183 78bd 9c2a 833b
000000d0: f220 a2bc 25df e33d 4f7d 7b3d 46e0 913d
000000e0: 5d5e af3c 794e 013c 5004 813b ae05 debc
000000f0: e04e 9d3c 0af9 b53c b1a2 0f3c 7096 0a3d
00000100: a732 58bd 44d0 a1ba 304a bf3a 3fc9 7b3d
00000110: 5e8a a93c 1f28 c8b9 e433 fa3c 7dc3 c7bb
00000120: 8dc6 9ebc a9d4 883d e68a 6ebb d96a fdbd
00000130: f2fc 943c 90a5 d43c 3285 313d 39c3 043e
00000140: 7aa5 c1bb 7706 b33c e67e d73b 9534 1b3d
00000150: ce81 3f3b 8446 0a3d 7d3e 503c 35b0 813d
00000160: bff7 0f3d 9ac4 003d 0bb3 6b3d 970b 1a3c
00000170: 3008 36bd dcc6 74bc da0a 9f3c 8337 083d
00000180: 3427 1b3d 5c72 8dbc 5398 aa3c 7919 ca3c
00000190: c766 dabc 1613 903c 1d49 b8bb d097 a5bc
000001a0: e577 123d 78bf 6abd 38af 0537 ee18 5bbc
000001b0: 8314 d93c 1e69 e7bc 0e48 5dbc 2bf8 51bd
000001c0: 9e74 c53b 140c 803d 469c 7cbb c270 28bd
000001d0: f44c 6abd e6ec 743d 60a2 f1bd 1c58 c83d
000001e0: bee8 9d3c f2f2 94bc 6024 adbd cfd4 7abc
000001f0: c8b8 da3d 34ea ca3c 60c7 a2bd b0c7 403c
00000200: 4b9e 1bbc 07f1 193d 7337 21bd bc30 67bd
00000210: b213 4cbc 06a6 3cbc 4182 1bbd bb68 bbbc
00000220: 23e5 473d a3e6 5abd c15b 07bd 7354 123c
00000230: c330 923c 1ecb 7c3d dc5a c23d 4c19 5b3b
00000240: 6d24 c5bc acaa 953c b81e ffbc 38e5 35bb
00000250: 8250 e23c aaaf 81bd 88e4 4e3d beb9 d33b
00000260: c42f 623d 8af0 21bd 611a 423d 13a3 db3b
00000270: 3d3f 2f3c 51ca f3bc c771 bdbb 6179 a9bb
00000280: fdce ff3c 199a 193d c8f5 a8bd 421c 063c
00000290: df03 d43c 144a 283d 8f97 19bd 2a63 553d
000002a0: 6fe6 7d3d ad84 5a3c 8b2c 073b 2647 da3c
000002b0: a871 a7ba 1c87 ad3c ba6e 663d d336 583b
000002c0: daf4 1dbd ea77 11be 7676 9ebd cfc1 b5bc
000002d0: dcbe a9bd 4e36 c63c 4f2c 0a3e 2a99 193c
000002e0: 8e3a 2bbd 6267 b63d b3d3 423d 99f9 90bd
000002f0: 6841 19bd c7ad 91bd f06b 923d eaf1 423d
00000300: 5879 863c 78c1 64bc a68d 943c e20b 3ebd
00000310: c287 853b 3358 f33b 74d3 18bc 1bc6 cbbd
00000320: 267c fb3c 7580 b83c fab2 d43c f99e 693d
00000330: 31a0 d9bc 7d7f 0fbd 0ee7 2e3d c33b 82bc
00000340: 040a ecbc 3d33 a73d 2c96 53bb 1cf0 8bbc
00000350: 30c5 393c 3b11 073d 8ce2 a8bd 1a0f a2bc
00000360: 8a62 e73c 659b a337 baec 73bc 17f5 2e3d
00000370: 01e0 b4bc 9bc4 3ebc d022 d8bd 42e0 4d3a
00000380: a5be 25bb 4899 feba 9f5f 95bb 8d7d d6bc
00000390: 43ec 6cbc 5a3c 7d3b 7898 023d 6a58 113d
000003a0: 5f57 9e3c a5ee cd3c 2b23 873b 2b84 6bbd
000003b0: b729 abbc 5408 ad3c 52bc 7b3c 2fdc 833c
000003c0: 28c4 2a3d ea7a f83c 28b1 213d b33c a63b
000003d0: 26d9 1ebd 591f a33d 721f a8bd 0e63 f83c
000003e0: de91 393d e0a6 32bd d018 9a3b 3d33 9abd
000003f0: 6af0 39bc 4db7 443c d6dc 923d 2a7a 2c3c
